HloModule jit_train_step, is_scheduled=true, input_output_alias={ {0}: (0, {}, may-alias), {1}: (1, {}, may-alias), {2}: (2, {}, may-alias), {3}: (3, {}, may-alias), {4}: (4, {}, may-alias), {5}: (5, {}, may-alias), {6}: (6, {}, may-alias), {7}: (7, {}, may-alias), {8}: (8, {}, may-alias), {9}: (9, {}, may-alias), {10}: (10, {}, may-alias), {11}: (11, {}, may-alias), {12}: (12, {}, may-alias), {13}: (13, {}, may-alias), {14}: (14, {}, may-alias), {15}: (15, {}, may-alias), {16}: (16, {}, may-alias), {17}: (17, {}, may-alias), {18}: (18, {}, may-alias), {19}: (19, {}, may-alias), {20}: (20, {}, may-alias), {21}: (21, {}, may-alias), {22}: (22, {}, may-alias), {23}: (23, {}, may-alias), {24}: (24, {}, may-alias), {25}: (25, {}, may-alias), {26}: (26, {}, may-alias), {27}: (27, {}, may-alias), {28}: (28, {}, may-alias), {29}: (29, {}, may-alias), {30}: (30, {}, may-alias), {31}: (31, {}, may-alias), {32}: (32, {}, may-alias), {33}: (33, {}, may-alias), {34}: (34, {}, may-alias), {35}: (35, {}, may-alias), {36}: (36, {}, may-alias), {37}: (37, {}, may-alias), {38}: (38, {}, may-alias), {39}: (39, {}, may-alias), {40}: (40, {}, may-alias), {41}: (41, {}, may-alias), {42}: (42, {}, may-alias), {43}: (43, {}, may-alias), {44}: (44, {}, may-alias), {45}: (45, {}, may-alias), {46}: (46, {}, may-alias), {47}: (47, {}, may-alias), {48}: (48, {}, may-alias), {49}: (49, {}, may-alias), {50}: (50, {}, may-alias), {51}: (51, {}, may-alias), {52}: (52, {}, may-alias), {53}: (53, {}, may-alias), {54}: (54, {}, may-alias), {55}: (55, {}, may-alias), {56}: (56, {}, may-alias), {57}: (57, {}, may-alias), {58}: (58, {}, may-alias), {59}: (59, {}, may-alias), {60}: (60, {}, may-alias), {61}: (61, {}, may-alias), {62}: (62, {}, may-alias), {63}: (63, {}, may-alias), {64}: (64, {}, may-alias), {65}: (65, {}, may-alias), {66}: (66, {}, may-alias), {67}: (67, {}, may-alias), {68}: (68, {}, may-alias), {69}: (69, {}, may-alias), {70}: (70, {}, may-alias), {71}: (71, {}, may-alias) }, entry_computation_layout={(s32[], bf16[6144]{0}, bf16[768,32768]{1,0}, bf16[2,1,768,8]{3,2,1,0}, bf16[2,1,1,6144,16384]{4,3,2,1,0}, /*index=5*/bf16[2,1,1,6144,16384]{4,3,2,1,0}, bf16[2,1,1,16384,6144]{4,3,2,1,0}, bf16[2,1,6144]{2,1,0}, bf16[2,1,6144]{2,1,0}, bf16[2,1,768,8,128]{4,3,2,1,0}, /*index=10*/bf16[2,1,48,128,768]{4,3,2,1,0}, bf16[2,1,768,48,128]{4,3,2,1,0}, bf16[2,1,768,8,128]{4,3,2,1,0}, bf16[2,1,768,8]{3,2,1,0}, bf16[2,1,1,6144,16384]{4,3,2,1,0}, /*index=15*/bf16[2,1,1,6144,16384]{4,3,2,1,0}, bf16[2,1,1,16384,6144]{4,3,2,1,0}, bf16[2,1,6144]{2,1,0}, bf16[2,1,6144]{2,1,0}, bf16[2,1,768,8,128]{4,3,2,1,0}, /*index=20*/bf16[2,1,48,128,768]{4,3,2,1,0}, bf16[2,1,768,48,128]{4,3,2,1,0}, bf16[2,1,768,8,128]{4,3,2,1,0}, bf16[32768,768]{1,0}, s32[], /*index=25*/bf16[6144]{0}, bf16[768,32768]{1,0}, bf16[2,1,768,8]{3,2,1,0}, bf16[2,1,1,6144,16384]{4,3,2,1,0}, bf16[2,1,1,6144,16384]{4,3,2,1,0}, /*index=30*/bf16[2,1,1,16384,6144]{4,3,2,1,0}, bf16[2,1,6144]{2,1,0}, bf16[2,1,6144]{2,1,0}, bf16[2,1,768,8,128]{4,3,2,1,0}, bf16[2,1,48,128,768]{4,3,2,1,0}, /*index=35*/bf16[2,1,768,48,128]{4,3,2,1,0}, bf16[2,1,768,8,128]{4,3,2,1,0}, bf16[2,1,768,8]{3,2,1,0}, bf16[2,1,1,6144,16384]{4,3,2,1,0}, bf16[2,1,1,6144,16384]{4,3,2,1,0}, /*index=40*/bf16[2,1,1,16384,6144]{4,3,2,1,0}, bf16[2,1,6144]{2,1,0}, bf16[2,1,6144]{2,1,0}, bf16[2,1,768,8,128]{4,3,2,1,0}, bf16[2,1,48,128,768]{4,3,2,1,0}, /*index=45*/bf16[2,1,768,48,128]{4,3,2,1,0}, bf16[2,1,768,8,128]{4,3,2,1,0}, bf16[32768,768]{1,0}, bf16[6144]{0}, bf16[768,32768]{1,0}, /*index=50*/bf16[2,1,768,8]{3,2,1,0}, bf16[2,1,1,6144,16384]{4,3,2,1,0}, bf16[2,1,1,6144,16384]{4,3,2,1,0}, bf16[2,1,1,16384,6144]{4,3,2,1,0}, bf16[2,1,6144]{2,1,0}, /*index=55*/bf16[2,1,6144]{2,1,0}, bf16[2,1,768,8,128]{4,3,2,1,0}, bf16[2,1,48,128,768]{4,3,2,1,0}, bf16[2,1,768,48,128]{4,3,2,1,0}, bf16[2,1,768,8,128]{4,3,2,1,0}, /*index=60*/bf16[2,1,768,8]{3,2,1,0}, bf16[2,1,1,6144,16384]{4,3,2,1,0}, bf16[2,1,1,6144,16384]{4,3,2,1,0}, bf16[2,1,1,16384,6144]{4,3,2,1,0}, bf16[2,1,6144]{2,1,0}, /*index=65*/bf16[2,1,6144]{2,1,0}, bf16[2,1,768,8,128]{4,3,2,1,0}, bf16[2,1,48,128,768]{4,3,2,1,0}, bf16[2,1,768,48,128]{4,3,2,1,0}, bf16[2,1,768,8,128]{4,3,2,1,0}, /*index=70*/bf16[32768,768]{1,0}, s32[], s32[8,8192]{1,0}, s32[8,8192]{1,0}, s32[8,8192]{1,0}, /*index=75*/s32[8,8192]{1,0})->(s32[], bf16[6144]{0}, bf16[768,32768]{1,0}, bf16[2,1,768,8]{3,2,1,0}, bf16[2,1,1,6144,16384]{4,3,2,1,0}, /*index=5*/bf16[2,1,1,6144,16384]{4,3,2,1,0}, bf16[2,1,1,16384,6144]{4,3,2,1,0}, bf16[2,1,6144]{2,1,0}, bf16[2,1,6144]{2,1,0}, bf16[2,1,768,8,128]{4,3,2,1,0}, /*index=10*/bf16[2,1,48,128,768]{4,3,2,1,0}, bf16[2,1,768,48,128]{4,3,2,1,0}, bf16[2,1,768,8,128]{4,3,2,1,0}, bf16[2,1,768,8]{3,2,1,0}, bf16[2,1,1,6144,16384]{4,3,2,1,0}, /*index=15*/bf16[2,1,1,6144,16384]{4,3,2,1,0}, bf16[2,1,1,16384,6144]{4,3,2,1,0}, bf16[2,1,6144]{2,1,0}, bf16[2,1,6144]{2,1,0}, bf16[2,1,768,8,128]{4,3,2,1,0}, /*index=20*/bf16[2,1,48,128,768]{4,3,2,1,0}, bf16[2,1,768,48,128]{4,3,2,1,0}, bf16[2,1,768,8,128]{4,3,2,1,0}, bf16[32768,768]{1,0}, s32[], /*index=25*/bf16[6144]{0}, bf16[768,32768]{1,0}, bf16[2,1,768,8]{3,2,1,0}, bf16[2,1,1,6144,16384]{4,3,2,1,0}, bf16[2,1,1,6144,16384]{4,3,2,1,0}, /*index=30*/bf16[2,1,1,16384,6144]{4,3,2,1,0}, bf16[2,1,6144]{2,1,0}, bf16[2,1,6144]{2,1,0}, bf16[2,1,768,8,128]{4,3,2,1,0}, bf16[2,1,48,128,768]{4,3,2,1,0}, /*index=35*/bf16[2,1,768,48,128]{4,3,2,1,0}, bf16[2,1,768,8,128]{4,3,2,1,0}, bf16[2,1,768,8]{3,2,1,0}, bf16[2,1,1,6144,16384]{4,3,2,1,0}, bf16[2,1,1,6144,16384]{4,3,2,1,0}, /*index=40*/bf16[2,1,1,16384,6144]{4,3,2,1,0}, bf16[2,1,6144]{2,1,0}, bf16[2,1,6144]{2,1,0}, bf16[2,1,768,8,128]{4,3,2,1,0}, bf16[2,1,48,128,768]{4,3,2,1,0}, /*index=45*/bf16[2,1,768,48,128]{4,3,2,1,0}, bf16[2,1,768,8,128]{4,3,2,1,0}, bf16[32768,768]{1,0}, bf16[6144]{0}, bf16[768,32768]{1,0}, /*index=50*/bf16[2,1,768,8]{3,2,1,0}, bf16[2,1,1,6144,16384]{4,3,2,1,0}, bf16[2,1,1,6144,16384]{4,3,2,1,0}, bf16[2,1,1,16384,6144]{4,3,2,1,0}, bf16[2,1,6144]{2,1,0}, /*index=55*/bf16[2,1,6144]{2,1,0}, bf16[2,1,768,8,128]{4,3,2,1,0}, bf16[2,1,48,128,768]{4,3,2,1,0}, bf16[2,1,768,48,128]{4,3,2,1,0}, bf16[2,1,768,8,128]{4,3,2,1,0}, /*index=60*/bf16[2,1,768,8]{3,2,1,0}, bf16[2,1,1,6144,16384]{4,3,2,1,0}, bf16[2,1,1,6144,16384]{4,3,2,1,0}, bf16[2,1,1,16384,6144]{4,3,2,1,0}, bf16[2,1,6144]{2,1,0}, /*index=65*/bf16[2,1,6144]{2,1,0}, bf16[2,1,768,8,128]{4,3,2,1,0}, bf16[2,1,48,128,768]{4,3,2,1,0}, bf16[2,1,768,48,128]{4,3,2,1,0}, bf16[2,1,768,8,128]{4,3,2,1,0}, /*index=70*/bf16[32768,768]{1,0}, s32[], bf16[], f32[], f32[], /*index=75*/f32[], bf16[], bf16[], s32[])}, allow_spmd_sharding_propagation_to_parameters={false,false,false,false,false,false,false,false,false,false,false,false,false,false,false,false,false,false,false,false,false,false,false,false,false,false,false,false,false,false,false,false,false,false,false,false,false,false,false,false,false,false,false,false,false,false,false,false,false,false,false,false,false,false,false,false,false,false,false,false,false,false,false,false,false,false,false,false,false,false,false,false,false,false,false,false}, allow_spmd_sharding_propagation_to_output={false,false,false,false,false,false,false,false,false,false,false,false,false,false,false,false,false,false,false,false,false,false,false,false,false,false,false,false,false,false,false,false,false,false,false,false,false,false,false,false,false,false,false,false,false,false,false,false,false,false,false,false,false,false,false,false,false,false,false,false,false,false,false,false,false,false,false,false,false,false,false,false,true,true,true,true,true,true,true}, num_partitions=16, frontend_attributes={fingerprint_before_lhs="7b4807cfa9d6cea68345e316fbcef4e7"}

%compare-greater-than.6.clone.clone.clone.clone.clone.clone.clone.clone.clone.2 (p.0.lhs.34: f32[], p.0.rhs.34: f32[], p.1.lhs.34: s32[], p.1.rhs.34: s32[]) -> pred[] {
  %constant_5332_0 = s32[] constant(2147483647)
  %constant_5331_0 = s32[] constant(0)
  %p.1.rhs.34 = s32[] parameter(3), metadata={scheduling_name="p.1.rhs.34"}
  %p.1.lhs.34 = s32[] parameter(2), metadata={scheduling_name="p.1.lhs.34"}
  %p.0.rhs.34 = f32[] parameter(1), metadata={scheduling_name="p.0.rhs.34"}
  %p.0.lhs.34 = f32[] parameter(0), metadata={scheduling_name="p.0.lhs.34"}
  %compare.1662.0 = pred[] compare(%p.1.lhs.34, %p.1.rhs.34), direction=LT, metadata={scheduling_name="compare.1662.0"}
  %bitcast-convert.73.0 = s32[] bitcast-convert(%p.0.rhs.34), metadata={scheduling_name="bitcast-convert.73.0"}
  %compare.1658.0 = pred[] compare(%bitcast-convert.73.0, %constant_5331_0), direction=LT, metadata={scheduling_name="compare.1658.0"}
  %xor.73.0 = s32[] xor(%constant_5332_0, %bitcast-convert.73.0), metadata={scheduling_name="xor.73.0"}
  %select.1320.0 = s32[] select(%compare.1658.0, %xor.73.0, %bitcast-convert.73.0), metadata={scheduling_name="select.1320.0"}
  %bitcast-convert.72.0 = s32[] bitcast-convert(%p.0.lhs.34), metadata={scheduling_name="bitcast-convert.72.0"}
  %compare.1657.0 = pred[] compare(%bitcast-convert.72.0, %constant_5331_0), direction=LT, metadata={scheduling_name="compare.1657.0"}
  %xor.72.0 = s32[] xor(%constant_5332_0, %bitcast-convert.72.0), metadata={scheduling_name="xor.72.0"}
  %select.1319.0 = s32[] select(%compare.1657.0, %xor.72.0, %bitcast-convert.72.0), metadata={scheduling_name="select.1319.0"}
  %compare.1659.0 = pred[] compare(%select.1319.0, %select.1320.0), direction=GT, metadata={scheduling_name="compare.1659.0"}
  %compare.1660.0 = pred[] compare(%select.1320.0, %select.1319.0), direction=GT, metadata={scheduling_name="compare.1660.0"}
  %compare.1661.0 = pred[] compare(%compare.1659.0, %compare.1660.0), direction=EQ, metadata={scheduling_name="compare.1661.0"}
  ROOT %select.1321.0 = pred[] select(%compare.1661.0, %compare.1662.0, %compare.1659.0), metadata={scheduling_name="select.1321.0"}
}

%compare-greater-than.6.clone.clone.clone.clone.clone.clone.clone.clone.clone.3 (p.0.lhs.36: f32[], p.0.rhs.36: f32[], p.1.lhs.36: s32[], p.1.rhs.36: s32[]) -> pred[] {
  %constant_5336_0 = s32[] constant(2147483647)
  %constant_5335_0 = s32[] constant(0)
  %p.1.rhs.36 = s32[] parameter(3), metadata={scheduling_name="p.1.rhs.36"}
  %p.1.lhs.36 = s32[] parameter(2), metadata={scheduling_name="p.1.lhs.36"}
  %p.0.rhs.36 = f32[] parameter(1), metadata={scheduling_name="p.0.rhs.36"}
  %p.0.lhs.36 = f32[] parameter(0), metadata={scheduling_name="p.0.lhs.36"}
  %compare.1678.0 = pred[] compare(%p.1.lhs.36, %p.1.rhs.36), direction=LT, metadata={scheduling_name="compare.1678.0"}
  %bitcast-convert.77.0 = s32[] bitcast-convert(%p.0.rhs.36), metadata={scheduling_name="bitcast-convert.77.0"}
  %compare.1674.0 = pred[] compare(%bitcast-convert.77.0, %constant_5335_0), direction=LT, metadata={scheduling_name="compare.1674.0"}
  %xor.77.0 = s32[] xor(%constant_5336_0, %bitcast-convert.77.0), metadata={scheduling_name="xor.77.0"}
  %select.1328.0 = s32[] select(%compare.1674.0, %xor.77.0, %bitcast-convert.77.0), metadata={scheduling_name="select.1328.0"}
  %bitcast-convert.76.0 = s32[] bitcast-convert(%p.0.lhs.36), metadata={scheduling_name="bitcast-convert.76.0"}
  %compare.1673.0 = pred[] compare(%bitcast-convert.76.0, %constant_5335_0), direction=LT, metadata={scheduling_name="compare.1673.0"}
  %xor.76.0 = s32[] xor(%constant_5336_0, %bitcast-convert.76.0), metadata={scheduling_name="xor.76.0"}
  %select.1327.0 = s32[] select(%compare.1673.0, %xor.76.0, %bitcast-convert.76.0), metadata={scheduling_name="select.1327.0"}
  %compare.1675.0 = pred[] compare(%select.1327.0, %select.1328.0), direction=GT, metadata={scheduling_name="compare.1675.0"}
  %compare.1676.0 = pred[] compare(%select.1328.0, %select.1327.0), direction=GT, metadata={scheduling_name="compare.1676.0"}
  %compare.1677.0 = pred[] compare(%compare.1675.0, %compare.1676.0), direction=EQ, metadata={scheduling_name="compare.1677.0"}
  ROOT %select.1329.0 = pred[] select(%compare.1677.0, %compare.1678.0, %compare.1675.0), metadata={scheduling_name="select.1329.0"}
}

%compare-value-and-index.9.clone.clone.2 (p.0.lhs.35: f32[], p.0.rhs.35: f32[], p.1.lhs.35: s32[], p.1.rhs.35: s32[], p.2.lhs.clone.6: s32[], p.2.rhs.clone.6: s32[]) -> pred[] {
  %constant_5334_0 = s32[] constant(2147483647)
  %constant_5333_0 = s32[] constant(0)
  %p.2.rhs.clone.6 = s32[] parameter(5), metadata={scheduling_name="p.2.rhs.clone.6"}
  %p.2.lhs.clone.6 = s32[] parameter(4), metadata={scheduling_name="p.2.lhs.clone.6"}
  %p.1.rhs.35 = s32[] parameter(3), metadata={scheduling_name="p.1.rhs.35"}
  %p.1.lhs.35 = s32[] parameter(2), metadata={scheduling_name="p.1.lhs.35"}
  %p.0.rhs.35 = f32[] parameter(1), metadata={scheduling_name="p.0.rhs.35"}
  %p.0.lhs.35 = f32[] parameter(0), metadata={scheduling_name="p.0.lhs.35"}
  %compare.1672.0 = pred[] compare(%p.2.lhs.clone.6, %p.2.rhs.clone.6), direction=LT, metadata={scheduling_name="compare.1672.0"}
  %compare.1669.0 = pred[] compare(%p.1.rhs.35, %p.1.lhs.35), direction=LT, metadata={scheduling_name="compare.1669.0"}
  %compare.1666.0 = pred[] compare(%p.1.lhs.35, %p.1.rhs.35), direction=LT, metadata={scheduling_name="compare.1666.0"}
  %bitcast-convert.75.0 = s32[] bitcast-convert(%p.0.rhs.35), metadata={scheduling_name="bitcast-convert.75.0"}
  %compare.1664.0 = pred[] compare(%bitcast-convert.75.0, %constant_5333_0), direction=LT, metadata={scheduling_name="compare.1664.0"}
  %xor.75.0 = s32[] xor(%constant_5334_0, %bitcast-convert.75.0), metadata={scheduling_name="xor.75.0"}
  %select.1323.0 = s32[] select(%compare.1664.0, %xor.75.0, %bitcast-convert.75.0), metadata={scheduling_name="select.1323.0"}
  %compare.1670.0 = pred[] compare(%p.0.rhs.35, %p.0.lhs.35), direction=GT, metadata={scheduling_name="compare.1670.0"}
  %compare.1667.0 = pred[] compare(%p.0.lhs.35, %p.0.rhs.35), direction=GT, metadata={scheduling_name="compare.1667.0"}
  %bitcast-convert.74.0 = s32[] bitcast-convert(%p.0.lhs.35), metadata={scheduling_name="bitcast-convert.74.0"}
  %compare.1663.0 = pred[] compare(%bitcast-convert.74.0, %constant_5333_0), direction=LT, metadata={scheduling_name="compare.1663.0"}
  %xor.74.0 = s32[] xor(%constant_5334_0, %bitcast-convert.74.0), metadata={scheduling_name="xor.74.0"}
  %select.1322.0 = s32[] select(%compare.1663.0, %xor.74.0, %bitcast-convert.74.0), metadata={scheduling_name="select.1322.0"}
  %compare.1665.0 = pred[] compare(%select.1322.0, %select.1323.0), direction=EQ, metadata={scheduling_name="compare.1665.0"}
  %select.1324.0 = pred[] select(%compare.1665.0, %compare.1666.0, %compare.1667.0), metadata={scheduling_name="select.1324.0"}
  %compare.1668.0 = pred[] compare(%select.1323.0, %select.1322.0), direction=EQ, metadata={scheduling_name="compare.1668.0"}
  %select.1325.0 = pred[] select(%compare.1668.0, %compare.1669.0, %compare.1670.0), metadata={scheduling_name="select.1325.0"}
  %compare.1671.0 = pred[] compare(%select.1324.0, %select.1325.0), direction=EQ, metadata={scheduling_name="compare.1671.0"}
  ROOT %select.1326.0 = pred[] select(%compare.1671.0, %compare.1672.0, %select.1324.0), metadata={scheduling_name="select.1326.0"}
}

%compare-value-and-index.9.clone.clone.3 (p.0.lhs.37: f32[], p.0.rhs.37: f32[], p.1.lhs.37: s32[], p.1.rhs.37: s32[], p.2.lhs.clone.7: s32[], p.2.rhs.clone.7: s32[]) -> pred[] {
  %constant_5338_0 = s32[] constant(2147483647)
  %constant_5337_0 = s32[] constant(0)
  %p.2.rhs.clone.7 = s32[] parameter(5), metadata={scheduling_name="p.2.rhs.clone.7"}
  %p.2.lhs.clone.7 = s32[] parameter(4), metadata={scheduling_name="p.2.lhs.clone.7"}
  %p.1.rhs.37 = s32[] parameter(3), metadata={scheduling_name="p.1.rhs.37"}
  %p.1.lhs.37 = s32[] parameter(2), metadata={scheduling_name="p.1.lhs.37"}
  %p.0.rhs.37 = f32[] parameter(1), metadata={scheduling_name="p.0.rhs.37"}
  %p.0.lhs.37 = f32[] parameter(0), metadata={scheduling_name="p.0.lhs.37"}
  %compare.1688.0 = pred[] compare(%p.2.lhs.clone.7, %p.2.rhs.clone.7), direction=LT, metadata={scheduling_name="compare.1688.0"}
  %compare.1685.0 = pred[] compare(%p.1.rhs.37, %p.1.lhs.37), direction=LT, metadata={scheduling_name="compare.1685.0"}
  %compare.1682.0 = pred[] compare(%p.1.lhs.37, %p.1.rhs.37), direction=LT, metadata={scheduling_name="compare.1682.0"}
  %bitcast-convert.79.0 = s32[] bitcast-convert(%p.0.rhs.37), metadata={scheduling_name="bitcast-convert.79.0"}
  %compare.1680.0 = pred[] compare(%bitcast-convert.79.0, %constant_5337_0), direction=LT, metadata={scheduling_name="compare.1680.0"}
  %xor.79.0 = s32[] xor(%constant_5338_0, %bitcast-convert.79.0), metadata={scheduling_name="xor.79.0"}
  %select.1331.0 = s32[] select(%compare.1680.0, %xor.79.0, %bitcast-convert.79.0), metadata={scheduling_name="select.1331.0"}
  %compare.1686.0 = pred[] compare(%p.0.rhs.37, %p.0.lhs.37), direction=GT, metadata={scheduling_name="compare.1686.0"}
  %compare.1683.0 = pred[] compare(%p.0.lhs.37, %p.0.rhs.37), direction=GT, metadata={scheduling_name="compare.1683.0"}
  %bitcast-convert.78.0 = s32[] bitcast-convert(%p.0.lhs.37), metadata={scheduling_name="bitcast-convert.78.0"}
  %compare.1679.0 = pred[] compare(%bitcast-convert.78.0, %constant_5337_0), direction=LT, metadata={scheduling_name="compare.1679.0"}
  %xor.78.0 = s32[] xor(%constant_5338_0, %bitcast-convert.78.0), metadata={scheduling_name="xor.78.0"}
  %select.1330.0 = s32[] select(%compare.1679.0, %xor.78.0, %bitcast-convert.78.0), metadata={scheduling_name="select.1330.0"}
  %compare.1681.0 = pred[] compare(%select.1330.0, %select.1331.0), direction=EQ, metadata={scheduling_name="compare.1681.0"}
  %select.1332.0 = pred[] select(%compare.1681.0, %compare.1682.0, %compare.1683.0), metadata={scheduling_name="select.1332.0"}
  %compare.1684.0 = pred[] compare(%select.1331.0, %select.1330.0), direction=EQ, metadata={scheduling_name="compare.1684.0"}
  %select.1333.0 = pred[] select(%compare.1684.0, %compare.1685.0, %compare.1686.0), metadata={scheduling_name="select.1333.0"}
  %compare.1687.0 = pred[] compare(%select.1332.0, %select.1333.0), direction=EQ, metadata={scheduling_name="compare.1687.0"}
  ROOT %select.1334.0 = pred[] select(%compare.1687.0, %compare.1688.0, %select.1332.0), metadata={scheduling_name="select.1334.0"}
}

%fused_dynamic_update_slice (param_0.2416: bf16[9,1,4,8192,6144], param_1.2626: s32[], param_2.2726: bf16[4,8192,6144]) -> bf16[9,1,4,8192,6144] {
  %param_0.2416 = bf16[9,1,4,8192,6144]{4,3,2,1,0} parameter(0), metadata={scheduling_name="param_0.2416"}
  %param_2.2726 = bf16[4,8192,6144]{2,1,0} parameter(2), metadata={scheduling_name="param_2.2726"}
  %bitcast.25897.1 = bf16[1,1,4,8192,6144]{4,3,2,1,0} bitcast(%param_2.2726), metadata={scheduling_name="bitcast.25897.1"}
  %param_1.2626 = s32[] parameter(1), metadata={scheduling_name="param_1.2626"}
  %constant_5288_31 = s32[] constant(0)
  ROOT %dynamic-update-slice.425.1 = bf16[9,1,4,8192,6144]{4,3,2,1,0} dynamic-update-slice(%param_0.2416, %bitcast.25897.1, %param_1.2626, %constant_5288_31, %constant_5288_31, /*index=5*/%constant_5288_31, %constant_5288_31), metadata={op_name="jit(train_step)/jit(main)/jvp(Transformer)/decoder/pipeline_module/while/body/dynamic_update_slice" source_file="/workspace/maxtext/MaxText/layers/pipeline.py" source_line=783 scheduling_name="dynamic-update-slice.425.1"}
}

%fused_dynamic_update_slice.1 (param_0.2417: bf16[9,1,4,8192,48,128], param_1.2628: s32[], param_2.2702: bf16[1,4,8192,48,128]) -> bf16[9,1,4,8192,48,128] {
  %param_0.2417 = bf16[9,1,4,8192,48,128]{5,4,3,2,1,0} parameter(0), metadata={scheduling_name="param_0.2417"}
  %param_2.2702 = bf16[1,4,8192,48,128]{4,3,2,1,0} parameter(2), metadata={scheduling_name="param_2.2702"}
  %bitcast.25934.1 = bf16[1,1,4,8192,48,128]{5,4,3,2,1,0} bitcast(%param_2.2702), metadata={scheduling_name="bitcast.25934.1"}
  %param_1.2628 = s32[] parameter(1), metadata={scheduling_name="param_1.2628"}
  %constant_5288_2 = s32[] constant(0)
  ROOT %dynamic-update-slice.428.1 = bf16[9,1,4,8192,48,128]{5,4,3,2,1,0} dynamic-update-slice(%param_0.2417, %bitcast.25934.1, %param_1.2628, %constant_5288_2, %constant_5288_2, /*index=5*/%constant_5288_2, %constant_5288_2, %constant_5288_2), metadata={op_name="jit(train_step)/jit(main)/jvp(Transformer)/decoder/pipeline_module/while/body/dynamic_update_slice" source_file="/workspace/maxtext/MaxText/layers/pipeline.py" source_line=783 scheduling_name="dynamic-update-slice.428.1"}
}

%fused_dynamic_update_slice.2 (param_0.2418: u32[9,2,4], param_1.2630: s32[], param_2.2711: u32[2,4]) -> u32[9,2,4] {
  %param_0.2418 = u32[9,2,4]{2,1,0} parameter(0), metadata={scheduling_name="param_0.2418"}
  %param_2.2711 = u32[2,4]{1,0} parameter(2), metadata={scheduling_name="param_2.2711"}
  %bitcast.25923.1 = u32[1,2,4]{2,1,0} bitcast(%param_2.2711), metadata={scheduling_name="bitcast.25923.1"}
  %param_1.2630 = s32[] parameter(1), metadata={scheduling_name="param_1.2630"}
  %constant_5288_16 = s32[] constant(0)
  ROOT %dynamic-update-slice.427.1 = u32[9,2,4]{2,1,0} dynamic-update-slice(%param_0.2418, %bitcast.25923.1, %param_1.2630, %constant_5288_16, %constant_5288_16), metadata={op_name="jit(train_step)/jit(main)/jvp(Transformer)/decoder/pipeline_module/while/body/dynamic_update_slice" source_file="/workspace/maxtext/MaxText/layers/pipeline.py" source_line=783 scheduling_name="dynamic-update-slice.427.1"}
}

%fused_dynamic_update_slice.3 (param_0.2420: s32[], param_1.3491: f32[1,4,48,8192,1], param_2.2715: f32[9,1,4,48,8192,1]) -> f32[9,1,1,4,48,8192] {
  %param_2.2715 = f32[9,1,4,48,8192,1]{4,3,2,5,1,0} parameter(2), metadata={scheduling_name="param_2.2715"}
  %bitcast.25906.1 = f32[9,1,1,4,48,8192]{5,4,3,2,1,0} bitcast(%param_2.2715), metadata={scheduling_name="bitcast.25906.1"}
  %param_1.3491 = f32[1,4,48,8192,1]{4,3,2,1,0} parameter(1), metadata={scheduling_name="param_1.3491"}
  %bitcast.25910.1 = f32[1,1,1,4,48,8192]{5,4,3,2,1,0} bitcast(%param_1.3491), metadata={scheduling_name="bitcast.25910.1"}
  %param_0.2420 = s32[] parameter(0), metadata={scheduling_name="param_0.2420"}
  %constant_5288_20 = s32[] constant(0)
  ROOT %dynamic-update-slice.426.1 = f32[9,1,1,4,48,8192]{5,4,3,2,1,0} dynamic-update-slice(%bitcast.25906.1, %bitcast.25910.1, %param_0.2420, %constant_5288_20, %constant_5288_20, /*index=5*/%constant_5288_20, %constant_5288_20, %constant_5288_20), metadata={op_name="jit(train_step)/jit(main)/jvp(Transformer)/decoder/pipeline_module/while/body/dynamic_update_slice" source_file="/workspace/maxtext/MaxText/layers/pipeline.py" source_line=783 scheduling_name="dynamic-update-slice.426.1"}
}

%fused_dynamic_update_slice.4 (param_0.2421: bf16[9,1,4,8192,48,128], param_1.2635: s32[], param_2.2725: bf16[1,4,8192,48,128]) -> bf16[9,1,4,8192,48,128] {
  %param_0.2421 = bf16[9,1,4,8192,48,128]{5,4,3,2,1,0} parameter(0), metadata={scheduling_name="param_0.2421"}
  %param_2.2725 = bf16[1,4,8192,48,128]{4,3,2,1,0} parameter(2), metadata={scheduling_name="param_2.2725"}
  %bitcast.25886.1 = bf16[1,1,4,8192,48,128]{5,4,3,2,1,0} bitcast(%param_2.2725), metadata={scheduling_name="bitcast.25886.1"}
  %param_1.2635 = s32[] parameter(1), metadata={scheduling_name="param_1.2635"}
  %constant_5288_30 = s32[] constant(0)
  ROOT %dynamic-update-slice.424.1 = bf16[9,1,4,8192,48,128]{5,4,3,2,1,0} dynamic-update-slice(%param_0.2421, %bitcast.25886.1, %param_1.2635, %constant_5288_30, %constant_5288_30, /*index=5*/%constant_5288_30, %constant_5288_30, %constant_5288_30), metadata={op_name="jit(train_step)/jit(main)/jvp(Transformer)/decoder/pipeline_module/while/body/dynamic_update_slice" source_file="/workspace/maxtext/MaxText/layers/pipeline.py" source_line=783 scheduling_name="dynamic-update-slice.424.1"}
}

%fused_dynamic_update_slice.5 (param_0.2422: u32[9,2,4], param_1.2637: s32[], param_2.2722: u32[2,4]) -> u32[9,2,4] {
  %param_0.2422 = u32[9,2,4]{2,1,0} parameter(0), metadata={scheduling_name="param_0.2422"}
  %param_2.2722 = u32[2,4]{1,0} parameter(2), metadata={scheduling_name="param_2.2722"}
  %bitcast.25875.1 = u32[1,2,4]{2,1,0} bitcast(%param_2.2722), metadata={scheduling_name="bitcast.25875.1"}
  %param_1.2637 = s32[] parameter(1), metadata={scheduling_name="param_1.2637"}
  %constant_5288_27 = s32[] constant(0)
  ROOT %dynamic-update-slice.423.1 = u32[9,2,4]{2,1,0} dynamic-update-slice(%param_0.2422, %bitcast.25875.1, %param_1.2637, %constant_5288_27, %constant_5288_27), metadata={op_name="jit(train_step)/jit(main)/jvp(Transformer)/decoder/pipeline_module/while/body/dynamic_update_slice" source_file="/workspace/maxtext/MaxText/layers/pipeline.py" source_line=783 scheduling_name="dynamic-update-slice.423.1"}
}

%fused_dynamic_update_slice.6 (param_0.2424: s32[], param_1.3499: f32[1,4,48,8192,1], param_2.2724: f32[9,1,4,48,8192,1]) -> f32[9,1,1,4,48,8192] {
  %param_2.2724 = f32[9,1,4,48,8192,1]{4,3,2,5,1,0} parameter(2), metadata={scheduling_name="param_2.2724"}
  %bitcast.25858.1 = f32[9,1,1,4,48,8192]{5,4,3,2,1,0} bitcast(%param_2.2724), metadata={scheduling_name="bitcast.25858.1"}
  %param_1.3499 = f32[1,4,48,8192,1]{4,3,2,1,0} parameter(1), metadata={scheduling_name="param_1.3499"}
  %bitcast.25862.1 = f32[1,1,1,4,48,8192]{5,4,3,2,1,0} bitcast(%param_1.3499), metadata={scheduling_name="bitcast.25862.1"}
  %param_0.2424 = s32[] parameter(0), metadata={scheduling_name="param_0.2424"}
  %constant_5288_29 = s32[] constant(0)
  ROOT %dynamic-update-slice.422.1 = f32[9,1,1,4,48,8192]{5,4,3,2,1,0} dynamic-update-slice(%bitcast.25858.1, %bitcast.25862.1, %param_0.2424, %constant_5288_29, %constant_5288_29, /*index=5*/%constant_5288_29, %constant_5288_29, %constant_5288_29), metadata={op_name="jit(train_step)/jit(main)/jvp(Transformer)/decoder/pipeline_module/while/body/dynamic_update_slice" source_file="/workspace/maxtext/MaxText/layers/pipeline.py" source_line=783 scheduling_name="dynamic-update-slice.422.1"}
}

%fused_dynamic_update_slice.7 (param_0.2425: bf16[9,1,4,8192,6144], param_1.2642: s32[], param_2.2727: bf16[1,4,8192,6144]) -> bf16[9,1,4,8192,6144] {
  %param_0.2425 = bf16[9,1,4,8192,6144]{4,3,2,1,0} parameter(0), metadata={scheduling_name="param_0.2425"}
  %param_2.2727 = bf16[1,4,8192,6144]{3,2,1,0} parameter(2), metadata={scheduling_name="param_2.2727"}
  %bitcast.25849.1 = bf16[1,1,4,8192,6144]{4,3,2,1,0} bitcast(%param_2.2727), metadata={scheduling_name="bitcast.25849.1"}
  %param_1.2642 = s32[] parameter(1), metadata={scheduling_name="param_1.2642"}
  %constant_5288_32 = s32[] constant(0)
  ROOT %dynamic-update-slice.421.1 = bf16[9,1,4,8192,6144]{4,3,2,1,0} dynamic-update-slice(%param_0.2425, %bitcast.25849.1, %param_1.2642, %constant_5288_32, %constant_5288_32, /*index=5*/%constant_5288_32, %constant_5288_32), metadata={op_name="jit(train_step)/jit(main)/jvp(Transformer)/decoder/pipeline_module/while/body/dynamic_update_slice" source_file="/workspace/maxtext/MaxText/layers/pipeline.py" source_line=783 scheduling_name="dynamic-update-slice.421.1"}
}

%fused_dynamic_update_slice.8 (param_0.2426: bf16[1,2,4,8192,6144], param_1.3497: pred[1,4,8192,6144], param_2.2721: bf16[1,4,8192,6144], param_3.2211: bf16[4,8192,6144], param_4.1849: s32[]) -> bf16[1,2,4,8192,6144] {
  %param_0.2426 = bf16[1,2,4,8192,6144]{4,3,2,1,0} parameter(0), metadata={scheduling_name="param_0.2426"}
  %param_1.3497 = pred[1,4,8192,6144]{3,2,1,0} parameter(1), metadata={scheduling_name="param_1.3497"}
  %param_3.2211 = bf16[4,8192,6144]{2,1,0} parameter(3), metadata={scheduling_name="param_3.2211"}
  %bitcast.25830.3 = bf16[1,4,8192,6144]{3,2,1,0} bitcast(%param_3.2211), metadata={scheduling_name="bitcast.25830.3"}
  %param_2.2721 = bf16[1,4,8192,6144]{3,2,1,0} parameter(2), metadata={scheduling_name="param_2.2721"}
  %select.1359.3 = bf16[1,4,8192,6144]{3,2,1,0} select(%param_1.3497, %bitcast.25830.3, %param_2.2721), metadata={op_name="jit(train_step)/jit(main)/jvp(Transformer)/decoder/pipeline_module/while/body/pipeline_module.run_iteration_scannable/pipeline_module.run_one_iteration/pipeline_module.get_new_loop_state/jit(_where)/select_n" source_file="/workspace/maxtext/MaxText/layers/pipeline.py" source_line=348 scheduling_name="select.1359.3"}
  %bitcast.25838.1 = bf16[1,1,4,8192,6144]{4,3,2,1,0} bitcast(%select.1359.3), metadata={scheduling_name="bitcast.25838.1"}
  %constant_5288_26 = s32[] constant(0)
  %param_4.1849 = s32[] parameter(4), metadata={scheduling_name="param_4.1849"}
  %compare.1694.1 = pred[] compare(%param_4.1849, %constant_5288_26), direction=LT, metadata={op_name="jit(train_step)/jit(main)/jvp(Transformer)/decoder/pipeline_module/while/body/pipeline_module.run_iteration_scannable/pipeline_module.run_one_iteration/pipeline_module.get_iteration_inputs/jit(remainder)/rem" source_file="/workspace/maxtext/MaxText/layers/pipeline.py" source_line=168 scheduling_name="compare.1694.1"}
  %negate.227.1 = s32[] negate(%param_4.1849), metadata={op_name="jit(train_step)/jit(main)/jvp(Transformer)/decoder/pipeline_module/while/body/pipeline_module.run_iteration_scannable/pipeline_module.run_one_iteration/pipeline_module.get_iteration_inputs/jit(remainder)/rem" source_file="/workspace/maxtext/MaxText/layers/pipeline.py" source_line=168 scheduling_name="negate.227.1"}
  %select.1339.3 = s32[] select(%compare.1694.1, %negate.227.1, %param_4.1849), metadata={op_name="jit(train_step)/jit(main)/jvp(Transformer)/decoder/pipeline_module/while/body/pipeline_module.run_iteration_scannable/pipeline_module.run_one_iteration/pipeline_module.get_iteration_inputs/jit(remainder)/rem" source_file="/workspace/maxtext/MaxText/layers/pipeline.py" source_line=168 scheduling_name="select.1339.3"}
  %constant_5286_3 = s32[] constant(1)
  %and.317.1 = s32[] and(%select.1339.3, %constant_5286_3), metadata={op_name="jit(train_step)/jit(main)/jvp(Transformer)/decoder/pipeline_module/while/body/pipeline_module.run_iteration_scannable/pipeline_module.run_one_iteration/pipeline_module.get_iteration_inputs/jit(remainder)/rem" source_file="/workspace/maxtext/MaxText/layers/pipeline.py" source_line=168 scheduling_name="and.317.1"}
  %negate.228.1 = s32[] negate(%and.317.1), metadata={op_name="jit(train_step)/jit(main)/jvp(Transformer)/decoder/pipeline_module/while/body/pipeline_module.run_iteration_scannable/pipeline_module.run_one_iteration/pipeline_module.get_iteration_inputs/jit(remainder)/rem" source_file="/workspace/maxtext/MaxText/layers/pipeline.py" source_line=168 scheduling_name="negate.228.1"}
  %select.1340.3 = s32[] select(%compare.1694.1, %negate.228.1, %and.317.1), metadata={op_name="jit(train_step)/jit(main)/jvp(Transformer)/decoder/pipeline_module/while/body/pipeline_module.run_iteration_scannable/pipeline_module.run_one_iteration/pipeline_module.get_iteration_inputs/jit(remainder)/rem" source_file="/workspace/maxtext/MaxText/layers/pipeline.py" source_line=168 scheduling_name="select.1340.3"}
  %compare.1695.1 = pred[] compare(%select.1340.3, %constant_5288_26), direction=LT, metadata={op_name="jit(train_step)/jit(main)/jvp(Transformer)/decoder/pipeline_module/while/body/pipeline_module.run_iteration_scannable/pipeline_module.run_one_iteration/pipeline_module.get_iteration_inputs/jit(remainder)/lt" source_file="/workspace/maxtext/MaxText/layers/pipeline.py" source_line=168 scheduling_name="compare.1695.1"}
  %compare.1696.1 = pred[] compare(%select.1340.3, %constant_5288_26), direction=NE, metadata={op_name="jit(train_step)/jit(main)/jvp(Transformer)/decoder/pipeline_module/while/body/pipeline_module.run_iteration_scannable/pipeline_module.run_one_iteration/pipeline_module.get_iteration_inputs/jit(remainder)/ne" source_file="/workspace/maxtext/MaxText/layers/pipeline.py" source_line=168 scheduling_name="compare.1696.1"}
  %and.318.3 = pred[] and(%compare.1695.1, %compare.1696.1), metadata={op_name="jit(train_step)/jit(main)/jvp(Transformer)/decoder/pipeline_module/while/body/pipeline_module.run_iteration_scannable/pipeline_module.run_one_iteration/pipeline_module.get_iteration_inputs/jit(remainder)/and" source_file="/workspace/maxtext/MaxText/layers/pipeline.py" source_line=168 scheduling_name="and.318.3"}
  %constant_5292_2 = s32[] constant(2), metadata={op_name="jit(train_step)/jit(main)/pipeline_module.run_iteration_scannable/pipeline_module.run_one_iteration/pipeline_module.get_iteration_inputs/jit(remainder)/jit(_where)/select_n" source_file="/workspace/maxtext/MaxText/layers/pipeline.py" source_line=168}
  %add.2972.3 = s32[] add(%select.1340.3, %constant_5292_2), metadata={op_name="jit(train_step)/jit(main)/jvp(Transformer)/decoder/pipeline_module/while/body/pipeline_module.run_iteration_scannable/pipeline_module.run_one_iteration/pipeline_module.get_iteration_inputs/jit(remainder)/add" source_file="/workspace/maxtext/MaxText/layers/pipeline.py" source_line=168 scheduling_name="add.2972.3"}
  %select.1341.2 = s32[] select(%and.318.3, %add.2972.3, %select.1340.3), metadata={op_name="jit(train_step)/jit(main)/jvp(Transformer)/decoder/pipeline_module/while/body/pipeline_module.run_iteration_scannable/pipeline_module.run_one_iteration/pipeline_module.get_iteration_inputs/jit(remainder)/select_n" source_file="/workspace/maxtext/MaxText/layers/pipeline.py" source_line=168 scheduling_name="select.1341.2"}
  %compare.1697.2 = pred[] compare(%select.1341.2, %constant_5288_26), direction=LT, metadata={op_name="jit(train_step)/jit(main)/jvp(Transformer)/decoder/pipeline_module/while/body/pipeline_module.run_iteration_scannable/pipeline_module.run_one_iteration/pipeline_module.get_iteration_inputs/lt" source_file="/workspace/maxtext/MaxText/layers/pipeline.py" source_line=169 scheduling_name="compare.1697.2"}
  %add.2973.2 = s32[] add(%select.1341.2, %constant_5292_2), metadata={op_name="jit(train_step)/jit(main)/jvp(Transformer)/decoder/pipeline_module/while/body/pipeline_module.run_iteration_scannable/pipeline_module.run_one_iteration/pipeline_module.get_iteration_inputs/add" source_file="/workspace/maxtext/MaxText/layers/pipeline.py" source_line=169 scheduling_name="add.2973.2"}
  %select.1342.1 = s32[] select(%compare.1697.2, %add.2973.2, %select.1341.2), metadata={op_name="jit(train_step)/jit(main)/jvp(Transformer)/decoder/pipeline_module/while/body/pipeline_module.run_iteration_scannable/pipeline_module.run_one_iteration/pipeline_module.get_iteration_inputs/select_n" source_file="/workspace/maxtext/MaxText/layers/pipeline.py" source_line=169 scheduling_name="select.1342.1"}
  ROOT %dynamic-update-slice.420.1 = bf16[1,2,4,8192,6144]{4,3,2,1,0} dynamic-update-slice(%param_0.2426, %bitcast.25838.1, %constant_5288_26, %select.1342.1, %constant_5288_26, /*index=5*/%constant_5288_26, %constant_5288_26), metadata={op_name="jit(train_step)/jit(main)/jvp(Transformer)/decoder/pipeline_module/while/body/pipeline_module.run_iteration_scannable/pipeline_module.run_one_iteration/pipeline_module.get_new_loop_state/dynamic_update_slice" source_file="/workspace/maxtext/MaxText/layers/pipeline.py" source_line=352 scheduling_name="dynamic-update-slice.420.1"}
}

%fused_transpose (param_0.2429: bf16[1,1,8,4,2048,6144]) -> bf16[4,8,12582912] {
  %param_0.2429 = bf16[1,1,8,4,2048,6144]{5,4,3,1,0,2} parameter(0), metadata={scheduling_name="param_0.2429"}
  %bitcast.25812.1 = bf16[8,4,12582912]{2,1,0} bitcast(%param_0.2429), metadata={scheduling_name="bitcast.25812.1"}
  ROOT %transpose.770.1 = bf16[4,8,12582912]{2,1,0} transpose(%bitcast.25812.1), dimensions={1,0,2}, metadata={op_name="jit(train_step)/jit(main)/jvp(Transformer)/decoder/pipeline_module/while/body/pipeline_module.run_iteration_scannable/pipeline_module.run_one_iteration/vmap(layers.func_to_vmap)/layers/layers_1/MoeBlock_0/combine/EBCM,BSEC -> BSM/dot_general" source_file="/workspace/maxtext/MaxText/layers/moe.py" source_line=1460 scheduling_name="transpose.770.1"}
}

%fused_transpose.1 (param_0.2435: bf16[4,16384,6144]) -> bf16[8,4,12582912] {
  %param_0.2435 = bf16[4,16384,6144]{2,1,0} parameter(0), metadata={scheduling_name="param_0.2435"}
  %bitcast.25754.1 = bf16[4,8,12582912]{2,1,0} bitcast(%param_0.2435), metadata={scheduling_name="bitcast.25754.1"}
  ROOT %transpose.769.1 = bf16[8,4,12582912]{2,1,0} transpose(%bitcast.25754.1), dimensions={1,0,2}, metadata={op_name="jit(train_step)/jit(main)/jvp(Transformer)/decoder/pipeline_module/while/body/pipeline_module.run_iteration_scannable/pipeline_module.run_one_iteration/vmap(layers.func_to_vmap)/layers/layers_1/MoeBlock_0/dispatch/BSM,BSEC -> EBCM/dot_general" source_file="/workspace/maxtext/MaxText/layers/moe.py" source_line=1388 scheduling_name="transpose.769.1"}
}

%fused_convert_transpose (param_0.3014: s32[1,1,1,1,2049], param_1.3111: s32[1,4,8,8192], param_2.2323: bf16[1,4,8,8192]) -> (bf16[4,16384,8192], bf16[4,8192,16384]) {
  %param_2.2323 = bf16[1,4,8,8192]{3,2,1,0} parameter(2), metadata={scheduling_name="param_2.2323"}
  %bitcast.25701.8 = bf16[4,8,8192]{2,1,0} bitcast(%param_2.2323), metadata={scheduling_name="bitcast.25701.8"}
  %convert.5008.5 = f32[4,8,8192]{2,1,0} convert(%bitcast.25701.8), metadata={scheduling_name="convert.5008.5"}
  %broadcast.6021.11 = f32[1,4,8,2049,8192]{4,3,2,1,0} broadcast(%convert.5008.5), dimensions={1,2,4}, metadata={op_name="jit(train_step)/jit(main)/jvp(Transformer)/decoder/pipeline_module/while/body/pipeline_module.run_iteration_scannable/pipeline_module.run_one_iteration/vmap(layers.func_to_vmap)/layers/layers_1/MoeBlock_0/mul" source_file="/workspace/maxtext/MaxText/layers/moe.py" source_line=1170 scheduling_name="broadcast.6021.11"}
  %param_1.3111 = s32[1,4,8,8192]{3,2,1,0} parameter(1), metadata={scheduling_name="param_1.3111"}
  %bitcast.25723.9 = s32[4,8,8192]{2,1,0} bitcast(%param_1.3111), metadata={scheduling_name="bitcast.25723.9"}
  %broadcast.5730.9 = s32[1,4,8,2049,8192]{4,3,2,1,0} broadcast(%bitcast.25723.9), dimensions={1,2,4}, metadata={op_name="jit(train_step)/jit(main)/jvp(Transformer)/decoder/pipeline_module/while/body/pipeline_module.run_iteration_scannable/pipeline_module.run_one_iteration/vmap(layers.func_to_vmap)/layers/layers_0/MoeBlock_0/jit(_one_hot)/eq" source_file="/workspace/maxtext/MaxText/layers/moe.py" source_line=1161 scheduling_name="broadcast.5730.9"}
  %param_0.3014 = s32[1,1,1,1,2049]{4,3,2,1,0} parameter(0), metadata={scheduling_name="param_0.3014"}
  %bitcast.25181.15 = s32[2049]{0} bitcast(%param_0.3014), metadata={scheduling_name="bitcast.25181.15"}
  %broadcast.5706.15 = s32[1,4,8,2049,8192]{4,3,2,1,0} broadcast(%bitcast.25181.15), dimensions={3}, metadata={op_name="jit(train_step)/jit(main)/jvp(Transformer)/decoder/pipeline_module/while/body/pipeline_module.run_iteration_scannable/pipeline_module.run_one_iteration/vmap(layers.func_to_vmap)/layers/layers_0/MoeBlock_0/jit(_one_hot)/eq" source_file="/workspace/maxtext/MaxText/layers/moe.py" source_line=1161 scheduling_name="broadcast.5706.15"}
  %compare.1717.7 = pred[1,4,8,2049,8192]{4,3,2,1,0} compare(%broadcast.5730.9, %broadcast.5706.15), direction=EQ, metadata={op_name="jit(train_step)/jit(main)/jvp(Transformer)/decoder/pipeline_module/while/body/pipeline_module.run_iteration_scannable/pipeline_module.run_one_iteration/vmap(layers.func_to_vmap)/layers/layers_0/MoeBlock_0/jit(_one_hot)/eq" source_file="/workspace/maxtext/MaxText/layers/moe.py" source_line=1161 scheduling_name="compare.1717.7"}
  %convert.4301.9 = s32[1,4,8,2049,8192]{4,3,2,1,0} convert(%compare.1717.7), metadata={op_name="jit(train_step)/jit(main)/jvp(Transformer)/decoder/pipeline_module/while/body/pipeline_module.run_iteration_scannable/pipeline_module.run_one_iteration/vmap(layers.func_to_vmap)/layers/layers_0/MoeBlock_0/jit(_one_hot)/convert_element_type" source_file="/workspace/maxtext/MaxText/layers/moe.py" source_line=1161 scheduling_name="convert.4301.9"}
  %convert.4303.9 = f32[1,4,8,2049,8192]{4,3,2,1,0} convert(%convert.4301.9), metadata={scheduling_name="convert.4303.9"}
  %multiply.2712.11 = f32[1,4,8,2049,8192]{4,3,2,1,0} multiply(%broadcast.6021.11, %convert.4303.9), metadata={op_name="jit(train_step)/jit(main)/jvp(Transformer)/decoder/pipeline_module/while/body/pipeline_module.run_iteration_scannable/pipeline_module.run_one_iteration/vmap(layers.func_to_vmap)/layers/layers_1/MoeBlock_0/mul" source_file="/workspace/maxtext/MaxText/layers/moe.py" source_line=1170 scheduling_name="multiply.2712.11"}
  %convert.4304.9 = bf16[1,4,8,2049,8192]{4,3,2,1,0} convert(%multiply.2712.11), metadata={scheduling_name="convert.4304.9"}
  %slice.2441.7 = bf16[1,4,8,2048,8192]{4,3,2,1,0} slice(%convert.4304.9), slice={[0:1], [0:4], [0:8], [1:2049], [0:8192]}, metadata={op_name="jit(train_step)/jit(main)/jvp(Transformer)/decoder/pipeline_module/while/body/pipeline_module.run_iteration_scannable/pipeline_module.run_one_iteration/vmap(layers.func_to_vmap)/layers/layers_1/MoeBlock_0/slice" source_file="/workspace/maxtext/MaxText/layers/moe.py" source_line=1171 scheduling_name="slice.2441.7"}
  %convert.4306.3 = f32[1,4,8,2048,8192]{4,3,2,1,0} convert(%slice.2441.7), metadata={scheduling_name="convert.4306.3"}
  %constant_5291_5 = bf16[] constant(0)
  %convert.5005.1 = f32[] convert(%constant_5291_5), metadata={scheduling_name="convert.5005.1"}
  %broadcast.6018.4 = f32[1,4,8,2048,8192]{4,3,2,1,0} broadcast(%convert.5005.1), dimensions={}, metadata={scheduling_name="broadcast.6018.4"}
  %compare.1718.3 = pred[1,4,8,2048,8192]{4,3,2,1,0} compare(%convert.4306.3, %broadcast.6018.4), direction=NE, metadata={op_name="jit(train_step)/jit(main)/jvp(Transformer)/decoder/pipeline_module/while/body/pipeline_module.run_iteration_scannable/pipeline_module.run_one_iteration/vmap(layers.func_to_vmap)/layers/layers_1/MoeBlock_0/convert_element_type" source_file="/workspace/maxtext/MaxText/layers/moe.py" source_line=1172 scheduling_name="compare.1718.3"}
  %bitcast.25745.1 = pred[4,16384,8192]{2,1,0} bitcast(%compare.1718.3), metadata={scheduling_name="bitcast.25745.1"}
  %convert.4308.1 = bf16[4,16384,8192]{2,1,0} convert(%bitcast.25745.1), metadata={scheduling_name="convert.4308.1"}
  %bitcast.25734.1.clone.1 = bf16[4,16384,8192]{2,1,0} bitcast(%slice.2441.7), metadata={scheduling_name="bitcast.25734.1.clone.1"}
  %transpose.768.1.clone.1 = bf16[4,8192,16384]{2,1,0} transpose(%bitcast.25734.1.clone.1), dimensions={0,2,1}, metadata={op_name="jit(train_step)/jit(main)/jvp(Transformer)/decoder/pipeline_module/while/body/pipeline_module.run_iteration_scannable/pipeline_module.run_one_iteration/vmap(layers.func_to_vmap)/layers/layers_1/MoeBlock_0/slice" source_file="/workspace/maxtext/MaxText/layers/moe.py" source_line=1171 scheduling_name="transpose.768.1.clone.1"}
  ROOT %tuple.543 = (bf16[4,16384,8192]{2,1,0}, bf16[4,8192,16384]{2,1,0}) tuple(%convert.4308.1, %transpose.768.1.clone.1), metadata={scheduling_name="tuple.543"}
}

%fused_multiply_transpose (param_0.2454: s32[4,8,8192], param_1.2653: s32[4,8,8192], param_2.4727: bf16[1,4,8192,8]) -> (s32[1,4,8,8192], bf16[1,4,8,8192]) {
  %param_0.2454 = s32[4,8,8192]{2,1,0} parameter(0), metadata={scheduling_name="param_0.2454"}
  %bitcast.25718.1 = s32[1,4,8,8192]{3,2,1,0} bitcast(%param_0.2454), metadata={scheduling_name="bitcast.25718.1"}
  %param_1.2653 = s32[4,8,8192]{2,1,0} parameter(1), metadata={scheduling_name="param_1.2653"}
  %bitcast.25696.2 = s32[1,4,8,8192]{3,2,1,0} bitcast(%param_1.2653), metadata={scheduling_name="bitcast.25696.2"}
  %multiply.2711.1 = s32[1,4,8,8192]{3,2,1,0} multiply(%bitcast.25718.1, %bitcast.25696.2), metadata={op_name="jit(train_step)/jit(main)/jvp(Transformer)/decoder/pipeline_module/while/body/pipeline_module.run_iteration_scannable/pipeline_module.run_one_iteration/vmap(layers.func_to_vmap)/layers/layers_1/MoeBlock_0/mul" source_file="/workspace/maxtext/MaxText/layers/moe.py" source_line=1160 scheduling_name="multiply.2711.1"}
  %param_2.4727 = bf16[1,4,8192,8]{3,2,1,0} parameter(2), metadata={scheduling_name="param_2.4727"}
  %bitcast.25615.3.clone.1 = bf16[4,8192,8]{2,1,0} bitcast(%param_2.4727), metadata={scheduling_name="bitcast.25615.3.clone.1"}
  %transpose.767.3.clone.1 = bf16[4,8,8192]{2,1,0} transpose(%bitcast.25615.3.clone.1), dimensions={0,2,1}, metadata={op_name="jit(train_step)/jit(main)/jvp(Transformer)/decoder/pipeline_module/while/body/pipeline_module.run_iteration_scannable/pipeline_module.run_one_iteration/vmap(layers.func_to_vmap)/layers/layers_1/MoeBlock_0/scatter-add" source_file="/workspace/maxtext/MaxText/layers/moe.py" source_line=1000 scheduling_name="transpose.767.3.clone.1"}
  %bitcast.25618.5.clone.1 = bf16[1,4,8,8192]{3,2,1,0} bitcast(%transpose.767.3.clone.1), metadata={scheduling_name="bitcast.25618.5.clone.1"}
  %convert.4295.5.clone.1 = f32[1,4,8,8192]{3,2,1,0} convert(%bitcast.25618.5.clone.1), metadata={scheduling_name="convert.4295.5.clone.1"}
  %convert.4298.3.clone.1 = f32[1,4,8,8192]{3,2,1,0} convert(%bitcast.25696.2), metadata={scheduling_name="convert.4298.3.clone.1"}
  %multiply.2709.3.clone.1 = f32[1,4,8,8192]{3,2,1,0} multiply(%convert.4295.5.clone.1, %convert.4298.3.clone.1), metadata={op_name="jit(train_step)/jit(main)/jvp(Transformer)/decoder/pipeline_module/while/body/pipeline_module.run_iteration_scannable/pipeline_module.run_one_iteration/vmap(layers.func_to_vmap)/layers/layers_1/MoeBlock_0/mul" source_file="/workspace/maxtext/MaxText/layers/moe.py" source_line=1152 scheduling_name="multiply.2709.3.clone.1"}
  %convert.4299.1.clone.1 = bf16[1,4,8,8192]{3,2,1,0} convert(%multiply.2709.3.clone.1), metadata={scheduling_name="convert.4299.1.clone.1"}
  ROOT %tuple.544 = (s32[1,4,8,8192]{3,2,1,0}, bf16[1,4,8,8192]{3,2,1,0}) tuple(%multiply.2711.1, %convert.4299.1.clone.1), metadata={scheduling_name="tuple.544"}
}

%region_7.620 (Arg_0.621: s32[], Arg_1.622: s32[]) -> s32[] {
  %Arg_1.622 = s32[] parameter(1), metadata={op_name="jit(train_step)/jit(main)/jvp(Transformer)/decoder/pipeline_module/while/body/pipeline_module.run_iteration_scannable/pipeline_module.run_one_iteration/vmap(layers.func_to_vmap)/layers/layers_0/MoeBlock_0/jit(cumsum)/reduce_window_sum" scheduling_name="Arg_1.622"}
  %Arg_0.621 = s32[] parameter(0), metadata={op_name="jit(train_step)/jit(main)/jvp(Transformer)/decoder/pipeline_module/while/body/pipeline_module.run_iteration_scannable/pipeline_module.run_one_iteration/vmap(layers.func_to_vmap)/layers/layers_0/MoeBlock_0/jit(cumsum)/reduce_window_sum" scheduling_name="Arg_0.621"}
  ROOT %add.2749.0 = s32[] add(%Arg_0.621, %Arg_1.622), metadata={op_name="jit(train_step)/jit(main)/jvp(Transformer)/decoder/pipeline_module/while/body/pipeline_module.run_iteration_scannable/pipeline_module.run_one_iteration/vmap(layers.func_to_vmap)/layers/layers_0/MoeBlock_0/jit(cumsum)/reduce_window_sum" source_file="/workspace/maxtext/MaxText/layers/moe.py" source_line=1140 scheduling_name="add.2749.0"}
}

%fused_reduce (param_0.3340: pred[1,4,8,8192,2], param_1.3516: s32[1,4,8,64,16], param_2.2745: s32[1,4,8,4,16]) -> (s32[4,8,8192], s32[4,8,8192]) {
  %param_0.3340 = pred[1,4,8,8192,2]{4,3,2,1,0} parameter(0), metadata={scheduling_name="param_0.3340"}
  %convert.4297.17 = s32[1,4,8,8192,2]{4,3,2,1,0} convert(%param_0.3340), metadata={op_name="jit(train_step)/jit(main)/jvp(Transformer)/decoder/pipeline_module/while/body/pipeline_module.run_iteration_scannable/pipeline_module.run_one_iteration/vmap(layers.func_to_vmap)/layers/layers_0/MoeBlock_0/jit(_one_hot)/convert_element_type" source_file="/workspace/maxtext/MaxText/layers/moe.py" source_line=1179 scheduling_name="convert.4297.17"}
  %bitcast.25630.11 = s32[1,4,8,1024,16]{4,3,2,1,0} bitcast(%convert.4297.17), metadata={scheduling_name="bitcast.25630.11"}
  %constant_5288_24 = s32[] constant(0)
  %reduce-window.172.11 = s32[1,4,8,1024,16]{4,3,2,1,0} reduce-window(%bitcast.25630.11, %constant_5288_24), window={size=1x1x1x1x16 pad=0_0x0_0x0_0x0_0x15_0}, to_apply=%region_7.620, metadata={scheduling_name="reduce-window.172.11"}
  %param_1.3516 = s32[1,4,8,64,16]{4,3,2,1,0} parameter(1), metadata={scheduling_name="param_1.3516"}
  %param_2.2745 = s32[1,4,8,4,16]{4,3,2,1,0} parameter(2), metadata={scheduling_name="param_2.2745"}
  %slice.2437.7 = s32[1,4,8,4,1]{4,3,2,1,0} slice(%param_2.2745), slice={[0:1], [0:4], [0:8], [0:4], [15:16]}, metadata={scheduling_name="slice.2437.7"}
  %bitcast.25654.9 = s32[1,4,8,4]{3,2,1,0} bitcast(%slice.2437.7), metadata={scheduling_name="bitcast.25654.9"}
  %reduce-window.175.9 = s32[1,4,8,5]{3,2,1,0} reduce-window(%bitcast.25654.9, %constant_5288_24), window={size=1x1x1x4 pad=0_0x0_0x0_0x4_0}, to_apply=%region_7.620, metadata={scheduling_name="reduce-window.175.9"}
  %slice.2438.7 = s32[1,4,8,4]{3,2,1,0} slice(%reduce-window.175.9), slice={[0:1], [0:4], [0:8], [0:4]}, metadata={scheduling_name="slice.2438.7"}
  %bitcast.25660.9 = s32[4,8,4]{2,1,0} bitcast(%slice.2438.7), metadata={scheduling_name="bitcast.25660.9"}
  %broadcast.5724.9 = s32[1,4,8,4,16]{4,3,2,1,0} broadcast(%bitcast.25660.9), dimensions={1,2,3}, metadata={scheduling_name="broadcast.5724.9"}
  %add.2993.7 = s32[1,4,8,4,16]{4,3,2,1,0} add(%param_2.2745, %broadcast.5724.9), metadata={op_name="jit(train_step)/jit(main)/jvp(Transformer)/decoder/pipeline_module/while/body/pipeline_module.run_iteration_scannable/pipeline_module.run_one_iteration/vmap(layers.func_to_vmap)/layers/layers_0/MoeBlock_0/jit(cumsum)/reduce_window_sum" source_file="/workspace/maxtext/MaxText/layers/moe.py" source_line=1140 scheduling_name="add.2993.7"}
  %bitcast.25664.7 = s32[1,4,8,64]{3,2,1,0} bitcast(%add.2993.7), metadata={scheduling_name="bitcast.25664.7"}
  %pad.362.7 = s32[1,4,8,65]{3,2,1,0} pad(%bitcast.25664.7, %constant_5288_24), padding=0_0x0_0x0_0x1_0, metadata={scheduling_name="pad.362.7"}
  %slice.2439.5 = s32[1,4,8,64]{3,2,1,0} slice(%pad.362.7), slice={[0:1], [0:4], [0:8], [0:64]}, metadata={scheduling_name="slice.2439.5"}
  %bitcast.25668.9 = s32[4,8,64]{2,1,0} bitcast(%slice.2439.5), metadata={scheduling_name="bitcast.25668.9"}
  %broadcast.5725.9 = s32[1,4,8,64,16]{4,3,2,1,0} broadcast(%bitcast.25668.9), dimensions={1,2,3}, metadata={scheduling_name="broadcast.5725.9"}
  %add.2994.7 = s32[1,4,8,64,16]{4,3,2,1,0} add(%param_1.3516, %broadcast.5725.9), metadata={op_name="jit(train_step)/jit(main)/jvp(Transformer)/decoder/pipeline_module/while/body/pipeline_module.run_iteration_scannable/pipeline_module.run_one_iteration/vmap(layers.func_to_vmap)/layers/layers_0/MoeBlock_0/jit(cumsum)/reduce_window_sum" source_file="/workspace/maxtext/MaxText/layers/moe.py" source_line=1140 scheduling_name="add.2994.7"}
  %bitcast.25672.5 = s32[1,4,8,1024]{3,2,1,0} bitcast(%add.2994.7), metadata={scheduling_name="bitcast.25672.5"}
  %pad.363.5 = s32[1,4,8,1025]{3,2,1,0} pad(%bitcast.25672.5, %constant_5288_24), padding=0_0x0_0x0_0x1_0, metadata={scheduling_name="pad.363.5"}
  %slice.2440.1 = s32[1,4,8,1024]{3,2,1,0} slice(%pad.363.5), slice={[0:1], [0:4], [0:8], [0:1024]}, metadata={scheduling_name="slice.2440.1"}
  %bitcast.25676.9 = s32[4,8,1024]{2,1,0} bitcast(%slice.2440.1), metadata={scheduling_name="bitcast.25676.9"}
  %broadcast.5726.9 = s32[1,4,8,1024,16]{4,3,2,1,0} broadcast(%bitcast.25676.9), dimensions={1,2,3}, metadata={scheduling_name="broadcast.5726.9"}
  %add.2995.7 = s32[1,4,8,1024,16]{4,3,2,1,0} add(%reduce-window.172.11, %broadcast.5726.9), metadata={op_name="jit(train_step)/jit(main)/jvp(Transformer)/decoder/pipeline_module/while/body/pipeline_module.run_iteration_scannable/pipeline_module.run_one_iteration/vmap(layers.func_to_vmap)/layers/layers_0/MoeBlock_0/jit(cumsum)/reduce_window_sum" source_file="/workspace/maxtext/MaxText/layers/moe.py" source_line=1140 scheduling_name="add.2995.7"}
  %bitcast.25680.6 = s32[1,4,8,16384]{3,2,1,0} bitcast(%add.2995.7), metadata={scheduling_name="bitcast.25680.6"}
  %constant_5303_1 = s32[] constant(2048)
  %broadcast.5702.6 = s32[1,4,8,16384]{3,2,1,0} broadcast(%constant_5303_1), dimensions={}, metadata={scheduling_name="broadcast.5702.6"}
  %compare.1716.3 = pred[1,4,8,16384]{3,2,1,0} compare(%bitcast.25680.6, %broadcast.5702.6), direction=LE, metadata={op_name="jit(train_step)/jit(main)/jvp(Transformer)/decoder/pipeline_module/while/body/pipeline_module.run_iteration_scannable/pipeline_module.run_one_iteration/vmap(layers.func_to_vmap)/layers/layers_1/MoeBlock_0/le" source_file="/workspace/maxtext/MaxText/layers/moe.py" source_line=1149 scheduling_name="compare.1716.3"}
  %bitcast.25686.3 = pred[1,4,8,8192,2]{4,3,2,1,0} bitcast(%compare.1716.3), metadata={scheduling_name="bitcast.25686.3"}
  %broadcast.5703.6 = s32[1,4,8,8192,2]{4,3,2,1,0} broadcast(%constant_5288_24), dimensions={}, metadata={scheduling_name="broadcast.5703.6"}
  %select.1358.3 = s32[1,4,8,8192,2]{4,3,2,1,0} select(%bitcast.25686.3, %convert.4297.17, %broadcast.5703.6), metadata={op_name="jit(train_step)/jit(main)/jvp(Transformer)/decoder/pipeline_module/while/body/pipeline_module.run_iteration_scannable/pipeline_module.run_one_iteration/vmap(layers.func_to_vmap)/layers/layers_1/MoeBlock_0/mul" source_file="/workspace/maxtext/MaxText/layers/moe.py" source_line=1149 scheduling_name="select.1358.3"}
  %bitcast.25693.1 = s32[4,8,8192,2]{3,2,1,0} bitcast(%select.1358.3), metadata={scheduling_name="bitcast.25693.1"}
  %reduce.507.1 = s32[4,8,8192]{2,1,0} reduce(%bitcast.25693.1, %constant_5288_24), dimensions={3}, to_apply=%region_7.620, metadata={scheduling_name="reduce.507.1"}
  %bitcast.25707.3.clone.1 = s32[1,4,8,16384]{3,2,1,0} bitcast(%convert.4297.17), metadata={scheduling_name="bitcast.25707.3.clone.1"}
  %multiply.2710.3.clone.1 = s32[1,4,8,16384]{3,2,1,0} multiply(%bitcast.25707.3.clone.1, %bitcast.25680.6), metadata={op_name="jit(train_step)/jit(main)/jvp(Transformer)/decoder/pipeline_module/while/body/pipeline_module.run_iteration_scannable/pipeline_module.run_one_iteration/vmap(layers.func_to_vmap)/layers/layers_1/MoeBlock_0/mul" source_file="/workspace/maxtext/MaxText/layers/moe.py" source_line=1155 scheduling_name="multiply.2710.3.clone.1"}
  %bitcast.25713.1.clone.1 = s32[4,8,8192,2]{3,2,1,0} bitcast(%multiply.2710.3.clone.1), metadata={scheduling_name="bitcast.25713.1.clone.1"}
  %reduce.508.1.clone.1 = s32[4,8,8192]{2,1,0} reduce(%bitcast.25713.1.clone.1, %constant_5288_24), dimensions={3}, to_apply=%region_7.620, metadata={scheduling_name="reduce.508.1.clone.1"}
  ROOT %tuple.545 = (s32[4,8,8192]{2,1,0}, s32[4,8,8192]{2,1,0}) tuple(%reduce.507.1, %reduce.508.1.clone.1), metadata={scheduling_name="tuple.545"}
}

%fused_reduce_window (param_0.3341: s32[1,4,8,64,16]) -> s32[1,4,8,4,16] {
  %param_0.3341 = s32[1,4,8,64,16]{4,3,2,1,0} parameter(0), metadata={scheduling_name="param_0.3341"}
  %slice.2436.1 = s32[1,4,8,64,1]{4,3,2,1,0} slice(%param_0.3341), slice={[0:1], [0:4], [0:8], [0:64], [15:16]}, metadata={scheduling_name="slice.2436.1"}
  %bitcast.25646.1 = s32[1,4,8,4,16]{4,3,2,1,0} bitcast(%slice.2436.1), metadata={scheduling_name="bitcast.25646.1"}
  %constant_5288_33 = s32[] constant(0)
  ROOT %reduce-window.174.1 = s32[1,4,8,4,16]{4,3,2,1,0} reduce-window(%bitcast.25646.1, %constant_5288_33), window={size=1x1x1x1x16 pad=0_0x0_0x0_0x0_0x15_0}, to_apply=%region_7.620, metadata={scheduling_name="reduce-window.174.1"}
}

%fused_reduce_window.1 (param_0.3343: s32[1,4,8,1024,1]) -> s32[1,4,8,64,16] {
  %param_0.3343 = s32[1,4,8,1024,1]{4,3,2,1,0} parameter(0), metadata={scheduling_name="param_0.3343"}
  %bitcast.25638.1 = s32[1,4,8,64,16]{4,3,2,1,0} bitcast(%param_0.3343), metadata={scheduling_name="bitcast.25638.1"}
  %constant_5288_38 = s32[] constant(0)
  ROOT %reduce-window.173.1 = s32[1,4,8,64,16]{4,3,2,1,0} reduce-window(%bitcast.25638.1, %constant_5288_38), window={size=1x1x1x1x16 pad=0_0x0_0x0_0x0_0x15_0}, to_apply=%region_7.620, metadata={scheduling_name="reduce-window.173.1"}
}

%region_6.604 (Arg_0.605: bf16[], Arg_1.606: bf16[]) -> bf16[] {
  %Arg_1.606 = bf16[] parameter(1), metadata={op_name="jit(train_step)/jit(main)/jvp(Transformer)/decoder/pipeline_module/while/body/pipeline_module.run_iteration_scannable/pipeline_module.run_one_iteration/vmap(layers.func_to_vmap)/layers/layers_0/MoeBlock_0/scatter-add" scheduling_name="Arg_1.606"}
  %Arg_0.605 = bf16[] parameter(0), metadata={op_name="jit(train_step)/jit(main)/jvp(Transformer)/decoder/pipeline_module/while/body/pipeline_module.run_iteration_scannable/pipeline_module.run_one_iteration/vmap(layers.func_to_vmap)/layers/layers_0/MoeBlock_0/scatter-add" scheduling_name="Arg_0.605"}
  %convert.3882.0 = f32[] convert(%Arg_1.606), metadata={scheduling_name="convert.3882.0"}
  %convert.3881.0 = f32[] convert(%Arg_0.605), metadata={scheduling_name="convert.3881.0"}
  %add.2747.0 = f32[] add(%convert.3881.0, %convert.3882.0), metadata={op_name="/add" source_file="/workspace/maxtext/MaxText/layers/moe.py" source_line=1000 scheduling_name="add.2747.0"}
  ROOT %convert.3883.0 = bf16[] convert(%add.2747.0), metadata={scheduling_name="convert.3883.0"}
}

%region_1.585 (Arg_0.586: f32[], Arg_1.587: f32[]) -> f32[] {
  %Arg_1.587 = f32[] parameter(1), metadata={op_name="jit(train_step)/jit(main)/jvp(Transformer)/decoder/pipeline_module/while/body/pipeline_module.run_iteration_scannable/pipeline_module.run_one_iteration/vmap(layers.func_to_vmap)/layers/layers_0/pre_self_attention_layer_norm/reduce_sum" scheduling_name="Arg_1.587"}
  %Arg_0.586 = f32[] parameter(0), metadata={op_name="jit(train_step)/jit(main)/jvp(Transformer)/decoder/pipeline_module/while/body/pipeline_module.run_iteration_scannable/pipeline_module.run_one_iteration/vmap(layers.func_to_vmap)/layers/layers_0/pre_self_attention_layer_norm/reduce_sum" scheduling_name="Arg_0.586"}
  ROOT %add.2746.0 = f32[] add(%Arg_0.586, %Arg_1.587), metadata={op_name="jit(train_step)/jit(main)/jvp(Transformer)/decoder/pipeline_module/while/body/pipeline_module.run_iteration_scannable/pipeline_module.run_one_iteration/vmap(layers.func_to_vmap)/layers/layers_0/pre_self_attention_layer_norm/reduce_sum" source_file="/workspace/maxtext/MaxText/layers/normalizations.py" source_line=60 scheduling_name="add.2746.0"}
}

%region_3.593 (Arg_0.594: f32[], Arg_1.595: f32[]) -> f32[] {
  %Arg_1.595 = f32[] parameter(1), metadata={op_name="jit(train_step)/jit(main)/jvp(Transformer)/decoder/pipeline_module/while/body/pipeline_module.run_iteration_scannable/pipeline_module.run_one_iteration/vmap(layers.func_to_vmap)/layers/layers_0/MoeBlock_0/reduce_max" scheduling_name="Arg_1.595"}
  %Arg_0.594 = f32[] parameter(0), metadata={op_name="jit(train_step)/jit(main)/jvp(Transformer)/decoder/pipeline_module/while/body/pipeline_module.run_iteration_scannable/pipeline_module.run_one_iteration/vmap(layers.func_to_vmap)/layers/layers_0/MoeBlock_0/reduce_max" scheduling_name="Arg_0.594"}
  ROOT %maximum.46.0 = f32[] maximum(%Arg_0.594, %Arg_1.595), metadata={op_name="jit(train_step)/jit(main)/jvp(Transformer)/decoder/pipeline_module/while/body/pipeline_module.run_iteration_scannable/pipeline_module.run_one_iteration/vmap(layers.func_to_vmap)/layers/layers_0/MoeBlock_0/reduce_max" source_file="/workspace/maxtext/MaxText/layers/moe.py" source_line=380 scheduling_name="maximum.46.0"}
}

%fused_scatter (param_0.2486: bf16[1,4,8192,8], param_1.2673: s32[65536,4], param_2.2515: u32[1,4,8192,2], param_3.1984: u32[1,4,8192,8], param_4.1847: s32[1,4,8192,2,1], param_5.1648: s32[1,4,8192,2,1], param_6.1582: s32[32768,2], param_7.1501: f32[32768,2], param_8.1330: u32[16], param_9.1000: u32[]) -> bf16[1,4,8192,8] {
  %param_0.2486 = bf16[1,4,8192,8]{3,2,1,0} parameter(0), metadata={scheduling_name="param_0.2486"}
  %param_1.2673 = s32[65536,4]{1,0} parameter(1), metadata={scheduling_name="param_1.2673"}
  %param_2.2515 = u32[1,4,8192,2]{3,2,1,0} parameter(2), metadata={scheduling_name="param_2.2515"}
  %param_3.1984 = u32[1,4,8192,8]{3,2,1,0} parameter(3), metadata={scheduling_name="param_3.1984"}
  %param_5.1648 = s32[1,4,8192,2,1]{3,2,1,4,0} parameter(5), metadata={scheduling_name="param_5.1648"}
  %bitcast.24505.26 = s32[1,1,4,8192,2]{4,3,2,1,0} bitcast(%param_5.1648), metadata={scheduling_name="bitcast.24505.26"}
  %param_4.1847 = s32[1,4,8192,2,1]{3,2,1,4,0} parameter(4), metadata={scheduling_name="param_4.1847"}
  %bitcast.24507.26 = s32[1,1,4,8192,2]{4,3,2,1,0} bitcast(%param_4.1847), metadata={scheduling_name="bitcast.24507.26"}
  %param_6.1582 = s32[32768,2]{1,0} parameter(6), metadata={scheduling_name="param_6.1582"}
  %bitcast.25542.19 = s32[1,4,8192,2]{3,2,1,0} bitcast(%param_6.1582), metadata={scheduling_name="bitcast.25542.19"}
  %constant_5288_52 = s32[] constant(0)
  %broadcast.5690.14 = s32[1,4,8192,2]{3,2,1,0} broadcast(%constant_5288_52), dimensions={}, metadata={scheduling_name="broadcast.5690.14"}
  %compare.1713.7 = pred[1,4,8192,2]{3,2,1,0} compare(%bitcast.25542.19, %broadcast.5690.14), direction=LT, metadata={op_name="jit(train_step)/jit(main)/jvp(Transformer)/decoder/pipeline_module/while/body/pipeline_module.run_iteration_scannable/pipeline_module.run_one_iteration/vmap(layers.func_to_vmap)/layers/layers_1/MoeBlock_0/lt" source_file="/workspace/maxtext/MaxText/layers/moe.py" source_line=1000 scheduling_name="compare.1713.7"}
  %constant_5300_1 = s32[] constant(8), metadata={op_name="jit(train_step)/jit(main)/jvp(Transformer)/decoder/pipeline_module/while/body/pipeline_module.run_iteration_scannable/pipeline_module.run_one_iteration/vmap(layers.func_to_vmap)/layers/layers_0/MoeBlock_0/top_k" source_file="/workspace/maxtext/MaxText/layers/moe.py" source_line=375}
  %broadcast.5691.14 = s32[1,4,8192,2]{3,2,1,0} broadcast(%constant_5300_1), dimensions={}, metadata={scheduling_name="broadcast.5691.14"}
  %add.2992.7 = s32[1,4,8192,2]{3,2,1,0} add(%bitcast.25542.19, %broadcast.5691.14), metadata={op_name="jit(train_step)/jit(main)/jvp(Transformer)/decoder/pipeline_module/while/body/pipeline_module.run_iteration_scannable/pipeline_module.run_one_iteration/vmap(layers.func_to_vmap)/layers/layers_1/MoeBlock_0/add" source_file="/workspace/maxtext/MaxText/layers/moe.py" source_line=1000 scheduling_name="add.2992.7"}
  %select.1356.5 = s32[1,4,8192,2]{3,2,1,0} select(%compare.1713.7, %add.2992.7, %bitcast.25542.19), metadata={op_name="jit(train_step)/jit(main)/jvp(Transformer)/decoder/pipeline_module/while/body/pipeline_module.run_iteration_scannable/pipeline_module.run_one_iteration/vmap(layers.func_to_vmap)/layers/layers_1/MoeBlock_0/select_n" source_file="/workspace/maxtext/MaxText/layers/moe.py" source_line=1000 scheduling_name="select.1356.5"}
  %bitcast.25555.13 = s32[1,1,4,8192,2]{4,3,2,1,0} bitcast(%select.1356.5), metadata={scheduling_name="bitcast.25555.13"}
  %concatenate.724.13 = s32[1,3,4,8192,2]{4,3,2,1,0} concatenate(%bitcast.24505.26, %bitcast.24507.26, %bitcast.25555.13), dimensions={1}, metadata={op_name="jit(train_step)/jit(main)/jvp(Transformer)/decoder/pipeline_module/while/body/pipeline_module.run_iteration_scannable/pipeline_module.run_one_iteration/vmap(layers.func_to_vmap)/layers/layers_1/MoeBlock_0/concatenate" source_file="/workspace/maxtext/MaxText/layers/moe.py" source_line=1000 scheduling_name="concatenate.724.13"}
  %constant_5312_1 = u32[1]{0} constant({0}), metadata={op_name="jit(train_step)/jit(main)/jvp(Transformer)/decoder/pipeline_module/while/body/pipeline_module.run_iteration_scannable/pipeline_module.run_one_iteration/vmap(layers.func_to_vmap)/layers/layers_0/MoeBlock_0/scatter-add" source_file="/workspace/maxtext/MaxText/layers/moe.py" source_line=1000}
  %param_8.1330 = u32[16]{0} parameter(8), metadata={scheduling_name="param_8.1330"}
  %param_9.1000 = u32[] parameter(9), metadata={scheduling_name="param_9.1000"}
  %dynamic-slice.1444.9 = u32[1]{0} dynamic-slice(%param_8.1330, %param_9.1000), dynamic_slice_sizes={1}, metadata={op_name="jit(train_step)/jit(main)/jvp(Transformer)/decoder/pipeline_module/while/body/pipeline_module.run_iteration_scannable/pipeline_module.run_one_iteration/vmap(layers.func_to_vmap)/layers/layers_0/MoeBlock_0/scatter-add" source_file="/workspace/maxtext/MaxText/layers/moe.py" source_line=1000 scheduling_name="dynamic-slice.1444.9"}
  %constant_5313_1 = u32[1]{0} constant({7}), metadata={op_name="jit(train_step)/jit(main)/jvp(Transformer)/decoder/pipeline_module/while/body/pipeline_module.run_iteration_scannable/pipeline_module.run_one_iteration/vmap(layers.func_to_vmap)/layers/layers_0/MoeBlock_0/scatter-add" source_file="/workspace/maxtext/MaxText/layers/moe.py" source_line=1000}
  %clamp.27.9 = u32[1]{0} clamp(%constant_5312_1, %dynamic-slice.1444.9, %constant_5313_1), metadata={op_name="jit(train_step)/jit(main)/jvp(Transformer)/decoder/pipeline_module/while/body/pipeline_module.run_iteration_scannable/pipeline_module.run_one_iteration/vmap(layers.func_to_vmap)/layers/layers_0/MoeBlock_0/scatter-add" source_file="/workspace/maxtext/MaxText/layers/moe.py" source_line=1000 scheduling_name="clamp.27.9"}
  %convert.4236.9 = s32[1]{0} convert(%clamp.27.9), metadata={op_name="jit(train_step)/jit(main)/jvp(Transformer)/decoder/pipeline_module/while/body/pipeline_module.run_iteration_scannable/pipeline_module.run_one_iteration/vmap(layers.func_to_vmap)/layers/layers_0/MoeBlock_0/scatter-add" source_file="/workspace/maxtext/MaxText/layers/moe.py" source_line=1000 scheduling_name="convert.4236.9"}
  %constant_5311_2 = s32[1]{0} constant({4}), metadata={op_name="jit(train_step)/jit(main)/jvp(Transformer)/decoder/pipeline_module/while/body/pipeline_module.run_iteration_scannable/pipeline_module.run_one_iteration/pipeline_module.get_microbatch_and_repeat_ids/jit(remainder)/add" source_file="/workspace/maxtext/MaxText/layers/pipeline.py" source_line=219}
  %multiply.2687.9 = s32[1]{0} multiply(%convert.4236.9, %constant_5311_2), metadata={op_name="jit(train_step)/jit(main)/jvp(Transformer)/decoder/pipeline_module/while/body/pipeline_module.run_iteration_scannable/pipeline_module.run_one_iteration/vmap(layers.func_to_vmap)/layers/layers_0/MoeBlock_0/scatter-add" source_file="/workspace/maxtext/MaxText/layers/moe.py" source_line=1000 scheduling_name="multiply.2687.9"}
  %constant_5299_6 = s32[1]{0} constant({0}), metadata={op_name="jit(train_step)/jit(main)/jvp(Transformer)/decoder/pipeline_module/while/body/pipeline_module.run_iteration_scannable/pipeline_module.run_one_iteration/vmap(layers.func_to_vmap)/layers/layers_0/self_attention/DotProductAttention_0/_FusedDotProductAttention_0/custom_partitioning" source_file="/workspace/maxtext/MaxText/layers/attention_op.py" source_line=1148}
  %concatenate.721.3 = s32[3]{0} concatenate(%multiply.2687.9, %constant_5299_6, %constant_5299_6), dimensions={0}, metadata={op_name="jit(train_step)/jit(main)/jvp(Transformer)/decoder/pipeline_module/while/body/pipeline_module.run_iteration_scannable/pipeline_module.run_one_iteration/vmap(layers.func_to_vmap)/layers/layers_0/MoeBlock_0/scatter-add" source_file="/workspace/maxtext/MaxText/layers/moe.py" source_line=1000 scheduling_name="concatenate.721.3"}
  %broadcast.5692.22 = s32[1,3,4,8192,2]{4,3,2,1,0} broadcast(%concatenate.721.3), dimensions={1}, metadata={op_name="jit(train_step)/jit(main)/jvp(Transformer)/decoder/pipeline_module/while/body/pipeline_module.run_iteration_scannable/pipeline_module.run_one_iteration/vmap(layers.func_to_vmap)/layers/layers_0/MoeBlock_0/scatter-add" source_file="/workspace/maxtext/MaxText/layers/moe.py" source_line=1000 scheduling_name="broadcast.5692.22"}
  %subtract.266.11 = s32[1,3,4,8192,2]{4,3,2,1,0} subtract(%concatenate.724.13, %broadcast.5692.22), metadata={op_name="jit(train_step)/jit(main)/jvp(Transformer)/decoder/pipeline_module/while/body/pipeline_module.run_iteration_scannable/pipeline_module.run_one_iteration/vmap(layers.func_to_vmap)/layers/layers_1/MoeBlock_0/scatter-add" source_file="/workspace/maxtext/MaxText/layers/moe.py" source_line=1000 scheduling_name="subtract.266.11"}
  %pad.361.8 = s32[1,4,4,8192,2]{4,3,2,1,0} pad(%subtract.266.11, %constant_5288_52), padding=0_0x1_0x0_0x0_0x0_0, metadata={op_name="jit(train_step)/jit(main)/jvp(Transformer)/decoder/pipeline_module/while/body/pipeline_module.run_iteration_scannable/pipeline_module.run_one_iteration/vmap(layers.func_to_vmap)/layers/layers_1/MoeBlock_0/scatter-add" source_file="/workspace/maxtext/MaxText/layers/moe.py" source_line=1000 scheduling_name="pad.361.8"}
  %bitcast.25576.7 = s32[65536,4]{0,1} bitcast(%pad.361.8), metadata={scheduling_name="bitcast.25576.7"}
  %gather.364.7 = u32[65536,1,1,1,1]{0,4,3,2,1} gather(%param_3.1984, %bitcast.25576.7), offset_dims={1,2,3,4}, collapsed_slice_dims={}, start_index_map={0,1,2,3}, index_vector_dim=1, slice_sizes={1,1,1,1}, metadata={op_name="jit(train_step)/jit(main)/jvp(Transformer)/decoder/pipeline_module/while/body/pipeline_module.run_iteration_scannable/pipeline_module.run_one_iteration/vmap(layers.func_to_vmap)/layers/layers_1/MoeBlock_0/gather" source_file="/workspace/maxtext/MaxText/layers/moe.py" source_line=1000 scheduling_name="gather.364.7"}
  %bitcast.25579.5 = u32[1,4,8192,2]{3,2,1,0} bitcast(%gather.364.7), metadata={scheduling_name="bitcast.25579.5"}
  %compare.1714.5 = pred[1,4,8192,2]{3,2,1,0} compare(%param_2.2515, %bitcast.25579.5), direction=EQ, metadata={op_name="jit(train_step)/jit(main)/jvp(Transformer)/decoder/pipeline_module/while/body/pipeline_module.run_iteration_scannable/pipeline_module.run_one_iteration/vmap(layers.func_to_vmap)/layers/layers_1/MoeBlock_0/eq" source_file="/workspace/maxtext/MaxText/layers/moe.py" source_line=1000 scheduling_name="compare.1714.5"}
  %param_7.1501 = f32[32768,2]{1,0} parameter(7), metadata={scheduling_name="param_7.1501"}
  %bitcast.25584.9 = f32[1,4,8192,2]{3,2,1,0} bitcast(%param_7.1501), metadata={scheduling_name="bitcast.25584.9"}
  %constant_5302_1 = f32[] constant(-inf)
  %reduce.399.1 = f32[32768]{0} reduce(%param_7.1501, %constant_5302_1), dimensions={1}, to_apply=%region_3.593, metadata={op_name="jit(train_step)/jit(main)/jvp(Transformer)/decoder/pipeline_module/while/body/pipeline_module.run_iteration_scannable/pipeline_module.run_one_iteration/vmap(layers.func_to_vmap)/layers/layers_1/MoeBlock_0/reduce_max" source_file="/workspace/maxtext/MaxText/layers/moe.py" source_line=380 scheduling_name="reduce.399.1"}
  %bitcast.25592.9 = f32[4,8192]{1,0} bitcast(%reduce.399.1), metadata={scheduling_name="bitcast.25592.9"}
  %broadcast.5720.9 = f32[1,4,8192,2]{3,2,1,0} broadcast(%bitcast.25592.9), dimensions={1,2}, metadata={op_name="jit(train_step)/jit(main)/jvp(Transformer)/decoder/pipeline_module/while/body/pipeline_module.run_iteration_scannable/pipeline_module.run_one_iteration/vmap(layers.func_to_vmap)/layers/layers_1/MoeBlock_0/sub" source_file="/workspace/maxtext/MaxText/layers/moe.py" source_line=380 scheduling_name="broadcast.5720.9"}
  %subtract.267.9 = f32[1,4,8192,2]{3,2,1,0} subtract(%bitcast.25584.9, %broadcast.5720.9), metadata={op_name="jit(train_step)/jit(main)/jvp(Transformer)/decoder/pipeline_module/while/body/pipeline_module.run_iteration_scannable/pipeline_module.run_one_iteration/vmap(layers.func_to_vmap)/layers/layers_1/MoeBlock_0/sub" source_file="/workspace/maxtext/MaxText/layers/moe.py" source_line=380 scheduling_name="subtract.267.9"}
  %exponential.98.7 = f32[1,4,8192,2]{3,2,1,0} exponential(%subtract.267.9), metadata={op_name="jit(train_step)/jit(main)/jvp(Transformer)/decoder/pipeline_module/while/body/pipeline_module.run_iteration_scannable/pipeline_module.run_one_iteration/vmap(layers.func_to_vmap)/layers/layers_1/MoeBlock_0/exp" source_file="/workspace/maxtext/MaxText/layers/moe.py" source_line=380 scheduling_name="exponential.98.7"}
  %bitcast.25600.3 = f32[4,8192,2]{2,1,0} bitcast(%exponential.98.7), metadata={scheduling_name="bitcast.25600.3"}
  %constant_5293_3 = f32[] constant(0)
  %reduce.434.3 = f32[4,8192]{1,0} reduce(%bitcast.25600.3, %constant_5293_3), dimensions={2}, to_apply=%region_1.585, metadata={op_name="jit(train_step)/jit(main)/jvp(Transformer)/decoder/pipeline_module/while/body/pipeline_module.run_iteration_scannable/pipeline_module.run_one_iteration/vmap(layers.func_to_vmap)/layers/layers_1/MoeBlock_0/reduce_sum" source_file="/workspace/maxtext/MaxText/layers/moe.py" source_line=380 scheduling_name="reduce.434.3"}
  %broadcast.5721.5 = f32[1,4,8192,2]{3,2,1,0} broadcast(%reduce.434.3), dimensions={1,2}, metadata={op_name="jit(train_step)/jit(main)/jvp(Transformer)/decoder/pipeline_module/while/body/pipeline_module.run_iteration_scannable/pipeline_module.run_one_iteration/vmap(layers.func_to_vmap)/layers/layers_1/MoeBlock_0/div" source_file="/workspace/maxtext/MaxText/layers/moe.py" source_line=380 scheduling_name="broadcast.5721.5"}
  %divide.474.5 = f32[1,4,8192,2]{3,2,1,0} divide(%exponential.98.7, %broadcast.5721.5), metadata={op_name="jit(train_step)/jit(main)/jvp(Transformer)/decoder/pipeline_module/while/body/pipeline_module.run_iteration_scannable/pipeline_module.run_one_iteration/vmap(layers.func_to_vmap)/layers/layers_1/MoeBlock_0/div" source_file="/workspace/maxtext/MaxText/layers/moe.py" source_line=380 scheduling_name="divide.474.5"}
  %convert.4294.3 = bf16[1,4,8192,2]{3,2,1,0} convert(%divide.474.5), metadata={op_name="jit(train_step)/jit(main)/jvp(Transformer)/decoder/pipeline_module/while/body/pipeline_module.run_iteration_scannable/pipeline_module.run_one_iteration/vmap(layers.func_to_vmap)/layers/layers_1/MoeBlock_0/convert_element_type" source_file="/workspace/maxtext/MaxText/layers/moe.py" source_line=380 scheduling_name="convert.4294.3"}
  %constant_5291_3 = bf16[] constant(0)
  %broadcast.5696.2 = bf16[1,4,8192,2]{3,2,1,0} broadcast(%constant_5291_3), dimensions={}, metadata={scheduling_name="broadcast.5696.2"}
  %select.1357.3 = bf16[1,4,8192,2]{3,2,1,0} select(%compare.1714.5, %convert.4294.3, %broadcast.5696.2), metadata={op_name="jit(train_step)/jit(main)/jvp(Transformer)/decoder/pipeline_module/while/body/pipeline_module.run_iteration_scannable/pipeline_module.run_one_iteration/vmap(layers.func_to_vmap)/layers/layers_1/MoeBlock_0/select_n" source_file="/workspace/maxtext/MaxText/layers/moe.py" source_line=1000 scheduling_name="select.1357.3"}
  %bitcast.25612.1 = bf16[65536,1,1,1,1]{4,3,2,1,0} bitcast(%select.1357.3), metadata={scheduling_name="bitcast.25612.1"}
  ROOT %scatter.220.1 = bf16[1,4,8192,8]{3,2,1,0} scatter(%param_0.2486, %param_1.2673, %bitcast.25612.1), update_window_dims={1,2,3,4}, inserted_window_dims={}, scatter_dims_to_operand_dims={0,1,2,3}, index_vector_dim=1, to_apply=%region_6.604, metadata={op_name="jit(train_step)/jit(main)/jvp(Transformer)/decoder/pipeline_module/while/body/pipeline_module.run_iteration_scannable/pipeline_module.run_one_iteration/vmap(layers.func_to_vmap)/layers/layers_1/MoeBlock_0/scatter-add" source_file="/workspace/maxtext/MaxText/layers/moe.py" source_line=1000 scheduling_name="scatter.220.1"}
}

%fused_transpose.2 (param_0.3336: s32[1,4,8192,2,1], param_1.3485: s32[1,4,8192,2,1], param_2.2708: s32[32768,2], param_3.2306: u32[16], param_4.1935: u32[]) -> s32[65536,4] {
  %param_1.3485 = s32[1,4,8192,2,1]{3,2,1,4,0} parameter(1), metadata={scheduling_name="param_1.3485"}
  %bitcast.24505.10 = s32[1,1,4,8192,2]{4,3,2,1,0} bitcast(%param_1.3485), metadata={scheduling_name="bitcast.24505.10"}
  %param_0.3336 = s32[1,4,8192,2,1]{3,2,1,4,0} parameter(0), metadata={scheduling_name="param_0.3336"}
  %bitcast.24507.10 = s32[1,1,4,8192,2]{4,3,2,1,0} bitcast(%param_0.3336), metadata={scheduling_name="bitcast.24507.10"}
  %param_2.2708 = s32[32768,2]{1,0} parameter(2), metadata={scheduling_name="param_2.2708"}
  %bitcast.25542.13 = s32[1,4,8192,2]{3,2,1,0} bitcast(%param_2.2708), metadata={scheduling_name="bitcast.25542.13"}
  %constant_5288_13 = s32[] constant(0)
  %broadcast.5690.12 = s32[1,4,8192,2]{3,2,1,0} broadcast(%constant_5288_13), dimensions={}, metadata={scheduling_name="broadcast.5690.12"}
  %compare.1713.5 = pred[1,4,8192,2]{3,2,1,0} compare(%bitcast.25542.13, %broadcast.5690.12), direction=LT, metadata={op_name="jit(train_step)/jit(main)/jvp(Transformer)/decoder/pipeline_module/while/body/pipeline_module.run_iteration_scannable/pipeline_module.run_one_iteration/vmap(layers.func_to_vmap)/layers/layers_1/MoeBlock_0/lt" source_file="/workspace/maxtext/MaxText/layers/moe.py" source_line=1000 scheduling_name="compare.1713.5"}
  %constant_5300_4 = s32[] constant(8), metadata={op_name="jit(train_step)/jit(main)/jvp(Transformer)/decoder/pipeline_module/while/body/pipeline_module.run_iteration_scannable/pipeline_module.run_one_iteration/vmap(layers.func_to_vmap)/layers/layers_0/MoeBlock_0/top_k" source_file="/workspace/maxtext/MaxText/layers/moe.py" source_line=375}
  %broadcast.5691.12 = s32[1,4,8192,2]{3,2,1,0} broadcast(%constant_5300_4), dimensions={}, metadata={scheduling_name="broadcast.5691.12"}
  %add.2992.5 = s32[1,4,8192,2]{3,2,1,0} add(%bitcast.25542.13, %broadcast.5691.12), metadata={op_name="jit(train_step)/jit(main)/jvp(Transformer)/decoder/pipeline_module/while/body/pipeline_module.run_iteration_scannable/pipeline_module.run_one_iteration/vmap(layers.func_to_vmap)/layers/layers_1/MoeBlock_0/add" source_file="/workspace/maxtext/MaxText/layers/moe.py" source_line=1000 scheduling_name="add.2992.5"}
  %select.1356.3 = s32[1,4,8192,2]{3,2,1,0} select(%compare.1713.5, %add.2992.5, %bitcast.25542.13), metadata={op_name="jit(train_step)/jit(main)/jvp(Transformer)/decoder/pipeline_module/while/body/pipeline_module.run_iteration_scannable/pipeline_module.run_one_iteration/vmap(layers.func_to_vmap)/layers/layers_1/MoeBlock_0/select_n" source_file="/workspace/maxtext/MaxText/layers/moe.py" source_line=1000 scheduling_name="select.1356.3"}
  %bitcast.25555.7 = s32[1,1,4,8192,2]{4,3,2,1,0} bitcast(%select.1356.3), metadata={scheduling_name="bitcast.25555.7"}
  %concatenate.724.7 = s32[1,3,4,8192,2]{4,3,2,1,0} concatenate(%bitcast.24505.10, %bitcast.24507.10, %bitcast.25555.7), dimensions={1}, metadata={op_name="jit(train_step)/jit(main)/jvp(Transformer)/decoder/pipeline_module/while/body/pipeline_module.run_iteration_scannable/pipeline_module.run_one_iteration/vmap(layers.func_to_vmap)/layers/layers_1/MoeBlock_0/concatenate" source_file="/workspace/maxtext/MaxText/layers/moe.py" source_line=1000 scheduling_name="concatenate.724.7"}
  %constant_5312_4 = u32[1]{0} constant({0}), metadata={op_name="jit(train_step)/jit(main)/jvp(Transformer)/decoder/pipeline_module/while/body/pipeline_module.run_iteration_scannable/pipeline_module.run_one_iteration/vmap(layers.func_to_vmap)/layers/layers_0/MoeBlock_0/scatter-add" source_file="/workspace/maxtext/MaxText/layers/moe.py" source_line=1000}
  %param_3.2306 = u32[16]{0} parameter(3), metadata={scheduling_name="param_3.2306"}
  %param_4.1935 = u32[] parameter(4), metadata={scheduling_name="param_4.1935"}
  %dynamic-slice.1444.7 = u32[1]{0} dynamic-slice(%param_3.2306, %param_4.1935), dynamic_slice_sizes={1}, metadata={op_name="jit(train_step)/jit(main)/jvp(Transformer)/decoder/pipeline_module/while/body/pipeline_module.run_iteration_scannable/pipeline_module.run_one_iteration/vmap(layers.func_to_vmap)/layers/layers_0/MoeBlock_0/scatter-add" source_file="/workspace/maxtext/MaxText/layers/moe.py" source_line=1000 scheduling_name="dynamic-slice.1444.7"}
  %constant_5313_4 = u32[1]{0} constant({7}), metadata={op_name="jit(train_step)/jit(main)/jvp(Transformer)/decoder/pipeline_module/while/body/pipeline_module.run_iteration_scannable/pipeline_module.run_one_iteration/vmap(layers.func_to_vmap)/layers/layers_0/MoeBlock_0/scatter-add" source_file="/workspace/maxtext/MaxText/layers/moe.py" source_line=1000}
  %clamp.27.7 = u32[1]{0} clamp(%constant_5312_4, %dynamic-slice.1444.7, %constant_5313_4), metadata={op_name="jit(train_step)/jit(main)/jvp(Transformer)/decoder/pipeline_module/while/body/pipeline_module.run_iteration_scannable/pipeline_module.run_one_iteration/vmap(layers.func_to_vmap)/layers/layers_0/MoeBlock_0/scatter-add" source_file="/workspace/maxtext/MaxText/layers/moe.py" source_line=1000 scheduling_name="clamp.27.7"}
  %convert.4236.7 = s32[1]{0} convert(%clamp.27.7), metadata={op_name="jit(train_step)/jit(main)/jvp(Transformer)/decoder/pipeline_module/while/body/pipeline_module.run_iteration_scannable/pipeline_module.run_one_iteration/vmap(layers.func_to_vmap)/layers/layers_0/MoeBlock_0/scatter-add" source_file="/workspace/maxtext/MaxText/layers/moe.py" source_line=1000 scheduling_name="convert.4236.7"}
  %constant_5311_6 = s32[1]{0} constant({4}), metadata={op_name="jit(train_step)/jit(main)/jvp(Transformer)/decoder/pipeline_module/while/body/pipeline_module.run_iteration_scannable/pipeline_module.run_one_iteration/pipeline_module.get_microbatch_and_repeat_ids/jit(remainder)/add" source_file="/workspace/maxtext/MaxText/layers/pipeline.py" source_line=219}
  %multiply.2687.7 = s32[1]{0} multiply(%convert.4236.7, %constant_5311_6), metadata={op_name="jit(train_step)/jit(main)/jvp(Transformer)/decoder/pipeline_module/while/body/pipeline_module.run_iteration_scannable/pipeline_module.run_one_iteration/vmap(layers.func_to_vmap)/layers/layers_0/MoeBlock_0/scatter-add" source_file="/workspace/maxtext/MaxText/layers/moe.py" source_line=1000 scheduling_name="multiply.2687.7"}
  %constant_5299_8 = s32[1]{0} constant({0}), metadata={op_name="jit(train_step)/jit(main)/jvp(Transformer)/decoder/pipeline_module/while/body/pipeline_module.run_iteration_scannable/pipeline_module.run_one_iteration/vmap(layers.func_to_vmap)/layers/layers_0/self_attention/DotProductAttention_0/_FusedDotProductAttention_0/custom_partitioning" source_file="/workspace/maxtext/MaxText/layers/attention_op.py" source_line=1148}
  %concatenate.721.2 = s32[3]{0} concatenate(%multiply.2687.7, %constant_5299_8, %constant_5299_8), dimensions={0}, metadata={op_name="jit(train_step)/jit(main)/jvp(Transformer)/decoder/pipeline_module/while/body/pipeline_module.run_iteration_scannable/pipeline_module.run_one_iteration/vmap(layers.func_to_vmap)/layers/layers_0/MoeBlock_0/scatter-add" source_file="/workspace/maxtext/MaxText/layers/moe.py" source_line=1000 scheduling_name="concatenate.721.2"}
  %broadcast.5692.6 = s32[1,3,4,8192,2]{4,3,2,1,0} broadcast(%concatenate.721.2), dimensions={1}, metadata={op_name="jit(train_step)/jit(main)/jvp(Transformer)/decoder/pipeline_module/while/body/pipeline_module.run_iteration_scannable/pipeline_module.run_one_iteration/vmap(layers.func_to_vmap)/layers/layers_0/MoeBlock_0/scatter-add" source_file="/workspace/maxtext/MaxText/layers/moe.py" source_line=1000 scheduling_name="broadcast.5692.6"}
  %subtract.266.5 = s32[1,3,4,8192,2]{4,3,2,1,0} subtract(%concatenate.724.7, %broadcast.5692.6), metadata={op_name="jit(train_step)/jit(main)/jvp(Transformer)/decoder/pipeline_module/while/body/pipeline_module.run_iteration_scannable/pipeline_module.run_one_iteration/vmap(layers.func_to_vmap)/layers/layers_1/MoeBlock_0/scatter-add" source_file="/workspace/maxtext/MaxText/layers/moe.py" source_line=1000 scheduling_name="subtract.266.5"}
  %pad.361.1 = s32[1,4,4,8192,2]{4,3,2,1,0} pad(%subtract.266.5, %constant_5288_13), padding=0_0x1_0x0_0x0_0x0_0, metadata={op_name="jit(train_step)/jit(main)/jvp(Transformer)/decoder/pipeline_module/while/body/pipeline_module.run_iteration_scannable/pipeline_module.run_one_iteration/vmap(layers.func_to_vmap)/layers/layers_1/MoeBlock_0/scatter-add" source_file="/workspace/maxtext/MaxText/layers/moe.py" source_line=1000 scheduling_name="pad.361.1"}
  %bitcast.25560.1 = s32[4,65536]{1,0} bitcast(%pad.361.1), metadata={scheduling_name="bitcast.25560.1"}
  ROOT %transpose.766.1 = s32[65536,4]{1,0} transpose(%bitcast.25560.1), dimensions={1,0}, metadata={scheduling_name="transpose.766.1"}
}

%fused_reduce.1 (param_0.3352: bf16[32768,6144]) -> f32[4,8192] {
  %param_0.3352 = bf16[32768,6144]{1,0} parameter(0), metadata={scheduling_name="param_0.3352"}
  %bitcast.25472.9 = bf16[1,4,8192,6144]{3,2,1,0} bitcast(%param_0.3352), metadata={scheduling_name="bitcast.25472.9"}
  %convert.4286.9 = f32[1,4,8192,6144]{3,2,1,0} convert(%bitcast.25472.9), metadata={op_name="jit(train_step)/jit(main)/jvp(Transformer)/decoder/pipeline_module/while/body/pipeline_module.run_iteration_scannable/pipeline_module.run_one_iteration/vmap(layers.func_to_vmap)/layers/layers_1/post_self_attention_layer_norm/convert_element_type" source_file="/workspace/maxtext/MaxText/layers/normalizations.py" source_line=59 scheduling_name="convert.4286.9"}
  %multiply.2705.3 = f32[1,4,8192,6144]{3,2,1,0} multiply(%convert.4286.9, %convert.4286.9), metadata={op_name="jit(train_step)/jit(main)/jvp(Transformer)/decoder/pipeline_module/while/body/pipeline_module.run_iteration_scannable/pipeline_module.run_one_iteration/vmap(layers.func_to_vmap)/layers/layers_1/post_self_attention_layer_norm/square" source_file="/workspace/maxtext/MaxText/layers/normalizations.py" source_line=60 scheduling_name="multiply.2705.3"}
  %bitcast.25479.1 = f32[4,8192,6144]{2,1,0} bitcast(%multiply.2705.3), metadata={scheduling_name="bitcast.25479.1"}
  %constant_5293_2 = f32[] constant(0)
  ROOT %reduce.433.1 = f32[4,8192]{1,0} reduce(%bitcast.25479.1, %constant_5293_2), dimensions={2}, to_apply=%region_1.585, metadata={op_name="jit(train_step)/jit(main)/jvp(Transformer)/decoder/pipeline_module/while/body/pipeline_module.run_iteration_scannable/pipeline_module.run_one_iteration/vmap(layers.func_to_vmap)/layers/layers_1/post_self_attention_layer_norm/reduce_sum" source_file="/workspace/maxtext/MaxText/layers/normalizations.py" source_line=60 scheduling_name="reduce.433.1"}
}

%fused_dynamic_slice (param_0.3339: bf16[1,2,48,128,768], param_1.3540: s32[1], param_2.2801: s32[]) -> bf16[1,1,768,48,128] {
  %param_0.3339 = bf16[1,2,48,128,768]{3,2,4,1,0} parameter(0), metadata={scheduling_name="param_0.3339"}
  %bitcast.25453.1 = bf16[1,2,768,48,128]{4,3,2,1,0} bitcast(%param_0.3339), metadata={scheduling_name="bitcast.25453.1"}
  %constant_5288_21 = s32[] constant(0)
  %constant_5310_15 = s32[1,1]{1,0} constant({ {0} })
  %param_2.2801 = s32[] parameter(2), metadata={scheduling_name="param_2.2801"}
  %bitcast.24639.38 = s32[1]{0} bitcast(%param_2.2801), metadata={scheduling_name="bitcast.24639.38"}
  %param_1.3540 = s32[1]{0} parameter(1), metadata={scheduling_name="param_1.3540"}
  %subtract.259.37 = s32[1]{0} subtract(%bitcast.24639.38, %param_1.3540), metadata={op_name="jit(train_step)/jit(main)/jvp(Transformer)/decoder/pipeline_module/while/body/pipeline_module.run_iteration_scannable/pipeline_module.run_one_iteration/pipeline_module.get_current_stage_weights/pipeline_module.get_current_repeat_from_stages/pipeline_module.get_microbatch_and_repeat_ids/sub" source_file="/workspace/maxtext/MaxText/layers/pipeline.py" source_line=218 scheduling_name="subtract.259.37"}
  %constant_5299_21 = s32[1]{0} constant({0}), metadata={op_name="jit(train_step)/jit(main)/jvp(Transformer)/decoder/pipeline_module/while/body/pipeline_module.run_iteration_scannable/pipeline_module.run_one_iteration/vmap(layers.func_to_vmap)/layers/layers_0/self_attention/DotProductAttention_0/_FusedDotProductAttention_0/custom_partitioning" source_file="/workspace/maxtext/MaxText/layers/attention_op.py" source_line=1148}
  %maximum.48.31 = s32[1]{0} maximum(%subtract.259.37, %constant_5299_21), metadata={op_name="jit(train_step)/jit(main)/jvp(Transformer)/decoder/pipeline_module/while/body/pipeline_module.run_iteration_scannable/pipeline_module.run_one_iteration/pipeline_module.get_current_stage_weights/pipeline_module.get_current_repeat_from_stages/pipeline_module.get_microbatch_and_repeat_ids/max" source_file="/workspace/maxtext/MaxText/layers/pipeline.py" source_line=218 scheduling_name="maximum.48.31"}
  %sign.28.30 = s32[1]{0} sign(%maximum.48.31), metadata={op_name="jit(train_step)/jit(main)/jvp(Transformer)/decoder/pipeline_module/while/body/pipeline_module.run_iteration_scannable/pipeline_module.run_one_iteration/pipeline_module.get_current_stage_weights/pipeline_module.get_current_repeat_from_stages/pipeline_module.get_microbatch_and_repeat_ids/jit(floor_divide)/sign" source_file="/workspace/maxtext/MaxText/layers/pipeline.py" source_line=220 scheduling_name="sign.28.30"}
  %constant_5306_16 = s32[1]{0} constant({1}), metadata={op_name="jit(train_step)/jit(main)/jvp(Transformer)/decoder/pipeline_module/while/body/pipeline_module.run_iteration_scannable/pipeline_module.run_one_iteration/pipeline_module.get_current_stage_weights/pipeline_module.get_current_repeat_from_stages/pipeline_module.get_microbatch_and_repeat_ids/jit(floor_divide)/ne" source_file="/workspace/maxtext/MaxText/layers/pipeline.py" source_line=220}
  %compare.1702.30 = pred[1]{0} compare(%sign.28.30, %constant_5306_16), direction=NE, metadata={op_name="jit(train_step)/jit(main)/jvp(Transformer)/decoder/pipeline_module/while/body/pipeline_module.run_iteration_scannable/pipeline_module.run_one_iteration/pipeline_module.get_current_stage_weights/pipeline_module.get_current_repeat_from_stages/pipeline_module.get_microbatch_and_repeat_ids/jit(floor_divide)/ne" source_file="/workspace/maxtext/MaxText/layers/pipeline.py" source_line=220 scheduling_name="compare.1702.30"}
  %constant_5307_17 = s32[1]{0} constant({3}), metadata={op_name="jit(train_step)/jit(main)/jvp(Transformer)/decoder/pipeline_module/while/body/pipeline_module.run_iteration_scannable/pipeline_module.run_one_iteration/pipeline_module.get_current_stage_weights/pipeline_module.get_current_repeat_from_stages/pipeline_module.get_microbatch_and_repeat_ids/jit(floor_divide)/rem" source_file="/workspace/maxtext/MaxText/layers/pipeline.py" source_line=220}
  %and.321.31 = s32[1]{0} and(%maximum.48.31, %constant_5307_17), metadata={op_name="jit(train_step)/jit(main)/jvp(Transformer)/decoder/pipeline_module/while/body/pipeline_module.run_iteration_scannable/pipeline_module.run_one_iteration/pipeline_module.get_current_stage_weights/pipeline_module.get_current_repeat_from_stages/pipeline_module.get_microbatch_and_repeat_ids/jit(floor_divide)/rem" source_file="/workspace/maxtext/MaxText/layers/pipeline.py" source_line=220 scheduling_name="and.321.31"}
  %compare.1703.31 = pred[1]{0} compare(%and.321.31, %constant_5299_21), direction=NE, metadata={op_name="jit(train_step)/jit(main)/jvp(Transformer)/decoder/pipeline_module/while/body/pipeline_module.run_iteration_scannable/pipeline_module.run_one_iteration/pipeline_module.get_current_stage_weights/pipeline_module.get_current_repeat_from_stages/pipeline_module.get_microbatch_and_repeat_ids/jit(floor_divide)/ne" source_file="/workspace/maxtext/MaxText/layers/pipeline.py" source_line=220 scheduling_name="compare.1703.31"}
  %and.322.30 = pred[1]{0} and(%compare.1702.30, %compare.1703.31), metadata={op_name="jit(train_step)/jit(main)/jvp(Transformer)/decoder/pipeline_module/while/body/pipeline_module.run_iteration_scannable/pipeline_module.run_one_iteration/pipeline_module.get_current_stage_weights/pipeline_module.get_current_repeat_from_stages/pipeline_module.get_microbatch_and_repeat_ids/jit(floor_divide)/and" source_file="/workspace/maxtext/MaxText/layers/pipeline.py" source_line=220 scheduling_name="and.322.30"}
  %constant_5308_16 = s32[1]{0} constant({2}), metadata={op_name="jit(train_step)/jit(main)/jvp(Transformer)/decoder/pipeline_module/while/body/pipeline_module.run_iteration_scannable/pipeline_module.run_one_iteration/pipeline_module.get_current_stage_weights/pipeline_module.get_current_repeat_from_stages/pipeline_module.get_microbatch_and_repeat_ids/jit(floor_divide)/div" source_file="/workspace/maxtext/MaxText/layers/pipeline.py" source_line=220}
  %shift-right-logical.21.30 = s32[1]{0} shift-right-logical(%maximum.48.31, %constant_5308_16), metadata={op_name="jit(train_step)/jit(main)/jvp(Transformer)/decoder/pipeline_module/while/body/pipeline_module.run_iteration_scannable/pipeline_module.run_one_iteration/pipeline_module.get_current_stage_weights/pipeline_module.get_current_repeat_from_stages/pipeline_module.get_microbatch_and_repeat_ids/jit(floor_divide)/div" source_file="/workspace/maxtext/MaxText/layers/pipeline.py" source_line=220 scheduling_name="shift-right-logical.21.30"}
  %constant_5309_16 = s32[1]{0} constant({-1})
  %add.2977.30 = s32[1]{0} add(%shift-right-logical.21.30, %constant_5309_16), metadata={op_name="jit(train_step)/jit(main)/jvp(Transformer)/decoder/pipeline_module/while/body/pipeline_module.run_iteration_scannable/pipeline_module.run_one_iteration/pipeline_module.get_current_stage_weights/pipeline_module.get_current_repeat_from_stages/pipeline_module.get_microbatch_and_repeat_ids/jit(floor_divide)/sub" source_file="/workspace/maxtext/MaxText/layers/pipeline.py" source_line=220 scheduling_name="add.2977.30"}
  %select.1349.30 = s32[1]{0} select(%and.322.30, %add.2977.30, %shift-right-logical.21.30), metadata={op_name="jit(train_step)/jit(main)/jvp(Transformer)/decoder/pipeline_module/while/body/pipeline_module.run_iteration_scannable/pipeline_module.run_one_iteration/pipeline_module.get_current_stage_weights/pipeline_module.get_current_repeat_from_stages/pipeline_module.get_microbatch_and_repeat_ids/jit(floor_divide)/jit(_where)/select_n" source_file="/workspace/maxtext/MaxText/layers/pipeline.py" source_line=220 scheduling_name="select.1349.30"}
  %compare.1704.30 = pred[1]{0} compare(%select.1349.30, %constant_5299_21), direction=LT, metadata={op_name="jit(train_step)/jit(main)/jvp(Transformer)/decoder/pipeline_module/while/body/pipeline_module.run_iteration_scannable/pipeline_module.run_one_iteration/pipeline_module.get_current_stage_weights/pipeline_module.get_current_repeat_from_stages/pipeline_module.vmap_parallel_gather/lt" source_file="/workspace/maxtext/MaxText/layers/pipeline.py" source_line=238 scheduling_name="compare.1704.30"}
  %add.2978.30 = s32[1]{0} add(%select.1349.30, %constant_5308_16), metadata={op_name="jit(train_step)/jit(main)/jvp(Transformer)/decoder/pipeline_module/while/body/pipeline_module.run_iteration_scannable/pipeline_module.run_one_iteration/pipeline_module.get_current_stage_weights/pipeline_module.get_current_repeat_from_stages/pipeline_module.vmap_parallel_gather/add" source_file="/workspace/maxtext/MaxText/layers/pipeline.py" source_line=238 scheduling_name="add.2978.30"}
  %select.1350.30 = s32[1]{0} select(%compare.1704.30, %add.2978.30, %select.1349.30), metadata={op_name="jit(train_step)/jit(main)/jvp(Transformer)/decoder/pipeline_module/while/body/pipeline_module.run_iteration_scannable/pipeline_module.run_one_iteration/pipeline_module.get_current_stage_weights/pipeline_module.get_current_repeat_from_stages/pipeline_module.vmap_parallel_gather/select_n" source_file="/workspace/maxtext/MaxText/layers/pipeline.py" source_line=238 scheduling_name="select.1350.30"}
  %bitcast.24671.37 = s32[1,1]{1,0} bitcast(%select.1350.30), metadata={scheduling_name="bitcast.24671.37"}
  %concatenate.716.27 = s32[1,5]{1,0} concatenate(%constant_5310_15, %bitcast.24671.37, %constant_5310_15, %constant_5310_15, %constant_5310_15), dimensions={1}, metadata={op_name="jit(train_step)/jit(main)/jvp(Transformer)/decoder/pipeline_module/while/body/pipeline_module.run_iteration_scannable/pipeline_module.run_one_iteration/pipeline_module.get_current_stage_weights/pipeline_module.get_current_repeat_from_stages/pipeline_module.vmap_parallel_gather/gather" source_file="/workspace/maxtext/MaxText/layers/pipeline.py" source_line=238 scheduling_name="concatenate.716.27"}
  %bitcast.24699.25 = s32[5]{0} bitcast(%concatenate.716.27), metadata={scheduling_name="bitcast.24699.25"}
  %slice.2414.25 = s32[1]{0} slice(%bitcast.24699.25), slice={[1:2]}, metadata={scheduling_name="slice.2414.25"}
  %bitcast.25802.11 = s32[] bitcast(%slice.2414.25), metadata={scheduling_name="bitcast.25802.11"}
  ROOT %dynamic-slice.1452.1 = bf16[1,1,768,48,128]{4,3,2,1,0} dynamic-slice(%bitcast.25453.1, %constant_5288_21, %bitcast.25802.11, %constant_5288_21, %constant_5288_21, /*index=5*/%constant_5288_21), dynamic_slice_sizes={1,1,768,48,128}, metadata={scheduling_name="dynamic-slice.1452.1"}
}

%fused_reduce.2 (param_0.3351: bf16[4,8192,6144]) -> f32[4,8192] {
  %param_0.3351 = bf16[4,8192,6144]{2,1,0} parameter(0), metadata={scheduling_name="param_0.3351"}
  %bitcast.25279.9 = bf16[1,4,8192,6144]{3,2,1,0} bitcast(%param_0.3351), metadata={op_name="jit(train_step)/jit(main)/jvp(Transformer)/decoder/pipeline_module/while/body/pipeline_module.run_iteration_scannable/pipeline_module.run_one_iteration/vmap(layers.func_to_vmap)/layers/layers_1/reduce_precision" source_file="/workspace/maxtext/MaxText/layers/mixtral.py" source_line=64 scheduling_name="bitcast.25279.9"}
  %convert.4256.9 = f32[1,4,8192,6144]{3,2,1,0} convert(%bitcast.25279.9), metadata={op_name="jit(train_step)/jit(main)/jvp(Transformer)/decoder/pipeline_module/while/body/pipeline_module.run_iteration_scannable/pipeline_module.run_one_iteration/vmap(layers.func_to_vmap)/layers/layers_1/pre_self_attention_layer_norm/convert_element_type" source_file="/workspace/maxtext/MaxText/layers/normalizations.py" source_line=59 scheduling_name="convert.4256.9"}
  %multiply.2693.3 = f32[1,4,8192,6144]{3,2,1,0} multiply(%convert.4256.9, %convert.4256.9), metadata={op_name="jit(train_step)/jit(main)/jvp(Transformer)/decoder/pipeline_module/while/body/pipeline_module.run_iteration_scannable/pipeline_module.run_one_iteration/vmap(layers.func_to_vmap)/layers/layers_1/pre_self_attention_layer_norm/square" source_file="/workspace/maxtext/MaxText/layers/normalizations.py" source_line=60 scheduling_name="multiply.2693.3"}
  %bitcast.25287.1 = f32[4,8192,6144]{2,1,0} bitcast(%multiply.2693.3), metadata={scheduling_name="bitcast.25287.1"}
  %constant_5293_1 = f32[] constant(0)
  ROOT %reduce.432.1 = f32[4,8192]{1,0} reduce(%bitcast.25287.1, %constant_5293_1), dimensions={2}, to_apply=%region_1.585, metadata={op_name="jit(train_step)/jit(main)/jvp(Transformer)/decoder/pipeline_module/while/body/pipeline_module.run_iteration_scannable/pipeline_module.run_one_iteration/vmap(layers.func_to_vmap)/layers/layers_1/pre_self_attention_layer_norm/reduce_sum" source_file="/workspace/maxtext/MaxText/layers/normalizations.py" source_line=60 scheduling_name="reduce.432.1"}
}

%fused_transpose.3 (param_0.2538: bf16[1,1,8,4,2048,6144]) -> bf16[4,8,12582912] {
  %param_0.2538 = bf16[1,1,8,4,2048,6144]{5,4,3,1,0,2} parameter(0), metadata={scheduling_name="param_0.2538"}
  %bitcast.25268.1 = bf16[8,4,12582912]{2,1,0} bitcast(%param_0.2538), metadata={scheduling_name="bitcast.25268.1"}
  ROOT %transpose.765.1 = bf16[4,8,12582912]{2,1,0} transpose(%bitcast.25268.1), dimensions={1,0,2}, metadata={op_name="jit(train_step)/jit(main)/jvp(Transformer)/decoder/pipeline_module/while/body/pipeline_module.run_iteration_scannable/pipeline_module.run_one_iteration/vmap(layers.func_to_vmap)/layers/layers_0/MoeBlock_0/combine/EBCM,BSEC -> BSM/dot_general" source_file="/workspace/maxtext/MaxText/layers/moe.py" source_line=1460 scheduling_name="transpose.765.1"}
}

%fused_transpose.4 (param_0.2544: bf16[4,16384,6144]) -> bf16[8,4,12582912] {
  %param_0.2544 = bf16[4,16384,6144]{2,1,0} parameter(0), metadata={scheduling_name="param_0.2544"}
  %bitcast.25210.1 = bf16[4,8,12582912]{2,1,0} bitcast(%param_0.2544), metadata={scheduling_name="bitcast.25210.1"}
  ROOT %transpose.764.1 = bf16[8,4,12582912]{2,1,0} transpose(%bitcast.25210.1), dimensions={1,0,2}, metadata={op_name="jit(train_step)/jit(main)/jvp(Transformer)/decoder/pipeline_module/while/body/pipeline_module.run_iteration_scannable/pipeline_module.run_one_iteration/vmap(layers.func_to_vmap)/layers/layers_0/MoeBlock_0/dispatch/BSM,BSEC -> EBCM/dot_general" source_file="/workspace/maxtext/MaxText/layers/moe.py" source_line=1388 scheduling_name="transpose.764.1"}
}

%fused_convert_transpose.1 (param_0.3015: s32[1,1,1,1,2049], param_1.3112: s32[1,4,8,8192], param_2.2324: bf16[1,4,8,8192]) -> (bf16[4,16384,8192], bf16[4,8192,16384]) {
  %param_2.2324 = bf16[1,4,8,8192]{3,2,1,0} parameter(2), metadata={scheduling_name="param_2.2324"}
  %bitcast.25154.8 = bf16[4,8,8192]{2,1,0} bitcast(%param_2.2324), metadata={scheduling_name="bitcast.25154.8"}
  %convert.5003.5 = f32[4,8,8192]{2,1,0} convert(%bitcast.25154.8), metadata={scheduling_name="convert.5003.5"}
  %broadcast.6016.11 = f32[1,4,8,2049,8192]{4,3,2,1,0} broadcast(%convert.5003.5), dimensions={1,2,4}, metadata={op_name="jit(train_step)/jit(main)/jvp(Transformer)/decoder/pipeline_module/while/body/pipeline_module.run_iteration_scannable/pipeline_module.run_one_iteration/vmap(layers.func_to_vmap)/layers/layers_0/MoeBlock_0/mul" source_file="/workspace/maxtext/MaxText/layers/moe.py" source_line=1170 scheduling_name="broadcast.6016.11"}
  %param_1.3112 = s32[1,4,8,8192]{3,2,1,0} parameter(1), metadata={scheduling_name="param_1.3112"}
  %bitcast.25176.9 = s32[4,8,8192]{2,1,0} bitcast(%param_1.3112), metadata={scheduling_name="bitcast.25176.9"}
  %broadcast.5705.9 = s32[1,4,8,2049,8192]{4,3,2,1,0} broadcast(%bitcast.25176.9), dimensions={1,2,4}, metadata={op_name="jit(train_step)/jit(main)/jvp(Transformer)/decoder/pipeline_module/while/body/pipeline_module.run_iteration_scannable/pipeline_module.run_one_iteration/vmap(layers.func_to_vmap)/layers/layers_0/MoeBlock_0/jit(_one_hot)/eq" source_file="/workspace/maxtext/MaxText/layers/moe.py" source_line=1161 scheduling_name="broadcast.5705.9"}
  %param_0.3015 = s32[1,1,1,1,2049]{4,3,2,1,0} parameter(0), metadata={scheduling_name="param_0.3015"}
  %bitcast.25181.17 = s32[2049]{0} bitcast(%param_0.3015), metadata={scheduling_name="bitcast.25181.17"}
  %broadcast.5706.17 = s32[1,4,8,2049,8192]{4,3,2,1,0} broadcast(%bitcast.25181.17), dimensions={3}, metadata={op_name="jit(train_step)/jit(main)/jvp(Transformer)/decoder/pipeline_module/while/body/pipeline_module.run_iteration_scannable/pipeline_module.run_one_iteration/vmap(layers.func_to_vmap)/layers/layers_0/MoeBlock_0/jit(_one_hot)/eq" source_file="/workspace/maxtext/MaxText/layers/moe.py" source_line=1161 scheduling_name="broadcast.5706.17"}
  %compare.1711.7 = pred[1,4,8,2049,8192]{4,3,2,1,0} compare(%broadcast.5705.9, %broadcast.5706.17), direction=EQ, metadata={op_name="jit(train_step)/jit(main)/jvp(Transformer)/decoder/pipeline_module/while/body/pipeline_module.run_iteration_scannable/pipeline_module.run_one_iteration/vmap(layers.func_to_vmap)/layers/layers_0/MoeBlock_0/jit(_one_hot)/eq" source_file="/workspace/maxtext/MaxText/layers/moe.py" source_line=1161 scheduling_name="compare.1711.7"}
  %convert.4245.9 = s32[1,4,8,2049,8192]{4,3,2,1,0} convert(%compare.1711.7), metadata={op_name="jit(train_step)/jit(main)/jvp(Transformer)/decoder/pipeline_module/while/body/pipeline_module.run_iteration_scannable/pipeline_module.run_one_iteration/vmap(layers.func_to_vmap)/layers/layers_0/MoeBlock_0/jit(_one_hot)/convert_element_type" source_file="/workspace/maxtext/MaxText/layers/moe.py" source_line=1161 scheduling_name="convert.4245.9"}
  %convert.4246.9 = f32[1,4,8,2049,8192]{4,3,2,1,0} convert(%convert.4245.9), metadata={scheduling_name="convert.4246.9"}
  %multiply.2691.11 = f32[1,4,8,2049,8192]{4,3,2,1,0} multiply(%broadcast.6016.11, %convert.4246.9), metadata={op_name="jit(train_step)/jit(main)/jvp(Transformer)/decoder/pipeline_module/while/body/pipeline_module.run_iteration_scannable/pipeline_module.run_one_iteration/vmap(layers.func_to_vmap)/layers/layers_0/MoeBlock_0/mul" source_file="/workspace/maxtext/MaxText/layers/moe.py" source_line=1170 scheduling_name="multiply.2691.11"}
  %convert.4247.9 = bf16[1,4,8,2049,8192]{4,3,2,1,0} convert(%multiply.2691.11), metadata={scheduling_name="convert.4247.9"}
  %slice.2428.7 = bf16[1,4,8,2048,8192]{4,3,2,1,0} slice(%convert.4247.9), slice={[0:1], [0:4], [0:8], [1:2049], [0:8192]}, metadata={op_name="jit(train_step)/jit(main)/jvp(Transformer)/decoder/pipeline_module/while/body/pipeline_module.run_iteration_scannable/pipeline_module.run_one_iteration/vmap(layers.func_to_vmap)/layers/layers_0/MoeBlock_0/slice" source_file="/workspace/maxtext/MaxText/layers/moe.py" source_line=1171 scheduling_name="slice.2428.7"}
  %convert.4249.3 = f32[1,4,8,2048,8192]{4,3,2,1,0} convert(%slice.2428.7), metadata={scheduling_name="convert.4249.3"}
  %constant_5291_1 = bf16[] constant(0)
  %convert.5005.2 = f32[] convert(%constant_5291_1), metadata={scheduling_name="convert.5005.2"}
  %broadcast.6018.6 = f32[1,4,8,2048,8192]{4,3,2,1,0} broadcast(%convert.5005.2), dimensions={}, metadata={scheduling_name="broadcast.6018.6"}
  %compare.1712.3 = pred[1,4,8,2048,8192]{4,3,2,1,0} compare(%convert.4249.3, %broadcast.6018.6), direction=NE, metadata={op_name="jit(train_step)/jit(main)/jvp(Transformer)/decoder/pipeline_module/while/body/pipeline_module.run_iteration_scannable/pipeline_module.run_one_iteration/vmap(layers.func_to_vmap)/layers/layers_0/MoeBlock_0/convert_element_type" source_file="/workspace/maxtext/MaxText/layers/moe.py" source_line=1172 scheduling_name="compare.1712.3"}
  %bitcast.25201.1 = pred[4,16384,8192]{2,1,0} bitcast(%compare.1712.3), metadata={scheduling_name="bitcast.25201.1"}
  %convert.4252.1 = bf16[4,16384,8192]{2,1,0} convert(%bitcast.25201.1), metadata={scheduling_name="convert.4252.1"}
  %bitcast.25190.1.clone.1 = bf16[4,16384,8192]{2,1,0} bitcast(%slice.2428.7), metadata={scheduling_name="bitcast.25190.1.clone.1"}
  %transpose.763.1.clone.1 = bf16[4,8192,16384]{2,1,0} transpose(%bitcast.25190.1.clone.1), dimensions={0,2,1}, metadata={op_name="jit(train_step)/jit(main)/jvp(Transformer)/decoder/pipeline_module/while/body/pipeline_module.run_iteration_scannable/pipeline_module.run_one_iteration/vmap(layers.func_to_vmap)/layers/layers_0/MoeBlock_0/slice" source_file="/workspace/maxtext/MaxText/layers/moe.py" source_line=1171 scheduling_name="transpose.763.1.clone.1"}
  ROOT %tuple.546 = (bf16[4,16384,8192]{2,1,0}, bf16[4,8192,16384]{2,1,0}) tuple(%convert.4252.1, %transpose.763.1.clone.1), metadata={scheduling_name="tuple.546"}
}

%fused_multiply_transpose.1 (param_0.2565: s32[4,8,8192], param_1.2704: s32[4,8,8192], param_2.4733: bf16[1,4,8192,8]) -> (s32[1,4,8,8192], bf16[1,4,8,8192]) {
  %param_0.2565 = s32[4,8,8192]{2,1,0} parameter(0), metadata={scheduling_name="param_0.2565"}
  %bitcast.25171.1 = s32[1,4,8,8192]{3,2,1,0} bitcast(%param_0.2565), metadata={scheduling_name="bitcast.25171.1"}
  %param_1.2704 = s32[4,8,8192]{2,1,0} parameter(1), metadata={scheduling_name="param_1.2704"}
  %bitcast.25149.2 = s32[1,4,8,8192]{3,2,1,0} bitcast(%param_1.2704), metadata={scheduling_name="bitcast.25149.2"}
  %multiply.2690.1 = s32[1,4,8,8192]{3,2,1,0} multiply(%bitcast.25171.1, %bitcast.25149.2), metadata={op_name="jit(train_step)/jit(main)/jvp(Transformer)/decoder/pipeline_module/while/body/pipeline_module.run_iteration_scannable/pipeline_module.run_one_iteration/vmap(layers.func_to_vmap)/layers/layers_0/MoeBlock_0/mul" source_file="/workspace/maxtext/MaxText/layers/moe.py" source_line=1160 scheduling_name="multiply.2690.1"}
  %param_2.4733 = bf16[1,4,8192,8]{3,2,1,0} parameter(2), metadata={scheduling_name="param_2.4733"}
  %bitcast.25066.3.clone.1 = bf16[4,8192,8]{2,1,0} bitcast(%param_2.4733), metadata={scheduling_name="bitcast.25066.3.clone.1"}
  %transpose.762.3.clone.1 = bf16[4,8,8192]{2,1,0} transpose(%bitcast.25066.3.clone.1), dimensions={0,2,1}, metadata={op_name="jit(train_step)/jit(main)/jvp(Transformer)/decoder/pipeline_module/while/body/pipeline_module.run_iteration_scannable/pipeline_module.run_one_iteration/vmap(layers.func_to_vmap)/layers/layers_0/MoeBlock_0/scatter-add" source_file="/workspace/maxtext/MaxText/layers/moe.py" source_line=1000 scheduling_name="transpose.762.3.clone.1"}
  %bitcast.25069.5.clone.1 = bf16[1,4,8,8192]{3,2,1,0} bitcast(%transpose.762.3.clone.1), metadata={scheduling_name="bitcast.25069.5.clone.1"}
  %convert.4238.5.clone.1 = f32[1,4,8,8192]{3,2,1,0} convert(%bitcast.25069.5.clone.1), metadata={scheduling_name="convert.4238.5.clone.1"}
  %convert.4241.3.clone.1 = f32[1,4,8,8192]{3,2,1,0} convert(%bitcast.25149.2), metadata={scheduling_name="convert.4241.3.clone.1"}
  %multiply.2688.3.clone.1 = f32[1,4,8,8192]{3,2,1,0} multiply(%convert.4238.5.clone.1, %convert.4241.3.clone.1), metadata={op_name="jit(train_step)/jit(main)/jvp(Transformer)/decoder/pipeline_module/while/body/pipeline_module.run_iteration_scannable/pipeline_module.run_one_iteration/vmap(layers.func_to_vmap)/layers/layers_0/MoeBlock_0/mul" source_file="/workspace/maxtext/MaxText/layers/moe.py" source_line=1152 scheduling_name="multiply.2688.3.clone.1"}
  %convert.4243.1.clone.1 = bf16[1,4,8,8192]{3,2,1,0} convert(%multiply.2688.3.clone.1), metadata={scheduling_name="convert.4243.1.clone.1"}
  ROOT %tuple.547 = (s32[1,4,8,8192]{3,2,1,0}, bf16[1,4,8,8192]{3,2,1,0}) tuple(%multiply.2690.1, %convert.4243.1.clone.1), metadata={scheduling_name="tuple.547"}
}

%fused_reduce.3 (param_0.3348: pred[1,4,8,8192,2], param_1.3517: s32[1,4,8,64,16], param_2.2746: s32[1,4,8,4,16]) -> (s32[4,8,8192], s32[4,8,8192]) {
  %param_0.3348 = pred[1,4,8,8192,2]{4,3,2,1,0} parameter(0), metadata={scheduling_name="param_0.3348"}
  %convert.4240.17 = s32[1,4,8,8192,2]{4,3,2,1,0} convert(%param_0.3348), metadata={op_name="jit(train_step)/jit(main)/jvp(Transformer)/decoder/pipeline_module/while/body/pipeline_module.run_iteration_scannable/pipeline_module.run_one_iteration/vmap(layers.func_to_vmap)/layers/layers_0/MoeBlock_0/jit(_one_hot)/convert_element_type" source_file="/workspace/maxtext/MaxText/layers/moe.py" source_line=1179 scheduling_name="convert.4240.17"}
  %bitcast.25084.11 = s32[1,4,8,1024,16]{4,3,2,1,0} bitcast(%convert.4240.17), metadata={scheduling_name="bitcast.25084.11"}
  %constant_5288_49 = s32[] constant(0)
  %reduce-window.168.11 = s32[1,4,8,1024,16]{4,3,2,1,0} reduce-window(%bitcast.25084.11, %constant_5288_49), window={size=1x1x1x1x16 pad=0_0x0_0x0_0x0_0x15_0}, to_apply=%region_7.620, metadata={scheduling_name="reduce-window.168.11"}
  %param_1.3517 = s32[1,4,8,64,16]{4,3,2,1,0} parameter(1), metadata={scheduling_name="param_1.3517"}
  %param_2.2746 = s32[1,4,8,4,16]{4,3,2,1,0} parameter(2), metadata={scheduling_name="param_2.2746"}
  %slice.2424.7 = s32[1,4,8,4,1]{4,3,2,1,0} slice(%param_2.2746), slice={[0:1], [0:4], [0:8], [0:4], [15:16]}, metadata={scheduling_name="slice.2424.7"}
  %bitcast.25108.9 = s32[1,4,8,4]{3,2,1,0} bitcast(%slice.2424.7), metadata={scheduling_name="bitcast.25108.9"}
  %reduce-window.171.9 = s32[1,4,8,5]{3,2,1,0} reduce-window(%bitcast.25108.9, %constant_5288_49), window={size=1x1x1x4 pad=0_0x0_0x0_0x4_0}, to_apply=%region_7.620, metadata={scheduling_name="reduce-window.171.9"}
  %slice.2425.7 = s32[1,4,8,4]{3,2,1,0} slice(%reduce-window.171.9), slice={[0:1], [0:4], [0:8], [0:4]}, metadata={scheduling_name="slice.2425.7"}
  %bitcast.25114.9 = s32[4,8,4]{2,1,0} bitcast(%slice.2425.7), metadata={scheduling_name="bitcast.25114.9"}
  %broadcast.5699.9 = s32[1,4,8,4,16]{4,3,2,1,0} broadcast(%bitcast.25114.9), dimensions={1,2,3}, metadata={scheduling_name="broadcast.5699.9"}
  %add.2985.7 = s32[1,4,8,4,16]{4,3,2,1,0} add(%param_2.2746, %broadcast.5699.9), metadata={op_name="jit(train_step)/jit(main)/jvp(Transformer)/decoder/pipeline_module/while/body/pipeline_module.run_iteration_scannable/pipeline_module.run_one_iteration/vmap(layers.func_to_vmap)/layers/layers_0/MoeBlock_0/jit(cumsum)/reduce_window_sum" source_file="/workspace/maxtext/MaxText/layers/moe.py" source_line=1140 scheduling_name="add.2985.7"}
  %bitcast.25118.7 = s32[1,4,8,64]{3,2,1,0} bitcast(%add.2985.7), metadata={scheduling_name="bitcast.25118.7"}
  %pad.359.7 = s32[1,4,8,65]{3,2,1,0} pad(%bitcast.25118.7, %constant_5288_49), padding=0_0x0_0x0_0x1_0, metadata={scheduling_name="pad.359.7"}
  %slice.2426.5 = s32[1,4,8,64]{3,2,1,0} slice(%pad.359.7), slice={[0:1], [0:4], [0:8], [0:64]}, metadata={scheduling_name="slice.2426.5"}
  %bitcast.25122.9 = s32[4,8,64]{2,1,0} bitcast(%slice.2426.5), metadata={scheduling_name="bitcast.25122.9"}
  %broadcast.5700.9 = s32[1,4,8,64,16]{4,3,2,1,0} broadcast(%bitcast.25122.9), dimensions={1,2,3}, metadata={scheduling_name="broadcast.5700.9"}
  %add.2986.7 = s32[1,4,8,64,16]{4,3,2,1,0} add(%param_1.3517, %broadcast.5700.9), metadata={op_name="jit(train_step)/jit(main)/jvp(Transformer)/decoder/pipeline_module/while/body/pipeline_module.run_iteration_scannable/pipeline_module.run_one_iteration/vmap(layers.func_to_vmap)/layers/layers_0/MoeBlock_0/jit(cumsum)/reduce_window_sum" source_file="/workspace/maxtext/MaxText/layers/moe.py" source_line=1140 scheduling_name="add.2986.7"}
  %bitcast.25126.5 = s32[1,4,8,1024]{3,2,1,0} bitcast(%add.2986.7), metadata={scheduling_name="bitcast.25126.5"}
  %pad.360.5 = s32[1,4,8,1025]{3,2,1,0} pad(%bitcast.25126.5, %constant_5288_49), padding=0_0x0_0x0_0x1_0, metadata={scheduling_name="pad.360.5"}
  %slice.2427.1 = s32[1,4,8,1024]{3,2,1,0} slice(%pad.360.5), slice={[0:1], [0:4], [0:8], [0:1024]}, metadata={scheduling_name="slice.2427.1"}
  %bitcast.25130.9 = s32[4,8,1024]{2,1,0} bitcast(%slice.2427.1), metadata={scheduling_name="bitcast.25130.9"}
  %broadcast.5701.9 = s32[1,4,8,1024,16]{4,3,2,1,0} broadcast(%bitcast.25130.9), dimensions={1,2,3}, metadata={scheduling_name="broadcast.5701.9"}
  %add.2987.7 = s32[1,4,8,1024,16]{4,3,2,1,0} add(%reduce-window.168.11, %broadcast.5701.9), metadata={op_name="jit(train_step)/jit(main)/jvp(Transformer)/decoder/pipeline_module/while/body/pipeline_module.run_iteration_scannable/pipeline_module.run_one_iteration/vmap(layers.func_to_vmap)/layers/layers_0/MoeBlock_0/jit(cumsum)/reduce_window_sum" source_file="/workspace/maxtext/MaxText/layers/moe.py" source_line=1140 scheduling_name="add.2987.7"}
  %bitcast.25134.6 = s32[1,4,8,16384]{3,2,1,0} bitcast(%add.2987.7), metadata={scheduling_name="bitcast.25134.6"}
  %constant_5303_2 = s32[] constant(2048)
  %broadcast.5702.4 = s32[1,4,8,16384]{3,2,1,0} broadcast(%constant_5303_2), dimensions={}, metadata={scheduling_name="broadcast.5702.4"}
  %compare.1710.3 = pred[1,4,8,16384]{3,2,1,0} compare(%bitcast.25134.6, %broadcast.5702.4), direction=LE, metadata={op_name="jit(train_step)/jit(main)/jvp(Transformer)/decoder/pipeline_module/while/body/pipeline_module.run_iteration_scannable/pipeline_module.run_one_iteration/vmap(layers.func_to_vmap)/layers/layers_0/MoeBlock_0/le" source_file="/workspace/maxtext/MaxText/layers/moe.py" source_line=1149 scheduling_name="compare.1710.3"}
  %bitcast.25139.3 = pred[1,4,8,8192,2]{4,3,2,1,0} bitcast(%compare.1710.3), metadata={scheduling_name="bitcast.25139.3"}
  %broadcast.5703.4 = s32[1,4,8,8192,2]{4,3,2,1,0} broadcast(%constant_5288_49), dimensions={}, metadata={scheduling_name="broadcast.5703.4"}
  %select.1355.3 = s32[1,4,8,8192,2]{4,3,2,1,0} select(%bitcast.25139.3, %convert.4240.17, %broadcast.5703.4), metadata={op_name="jit(train_step)/jit(main)/jvp(Transformer)/decoder/pipeline_module/while/body/pipeline_module.run_iteration_scannable/pipeline_module.run_one_iteration/vmap(layers.func_to_vmap)/layers/layers_0/MoeBlock_0/mul" source_file="/workspace/maxtext/MaxText/layers/moe.py" source_line=1149 scheduling_name="select.1355.3"}
  %bitcast.25146.1 = s32[4,8,8192,2]{3,2,1,0} bitcast(%select.1355.3), metadata={scheduling_name="bitcast.25146.1"}
  %reduce.505.1 = s32[4,8,8192]{2,1,0} reduce(%bitcast.25146.1, %constant_5288_49), dimensions={3}, to_apply=%region_7.620, metadata={scheduling_name="reduce.505.1"}
  %bitcast.25160.3.clone.1 = s32[1,4,8,16384]{3,2,1,0} bitcast(%convert.4240.17), metadata={scheduling_name="bitcast.25160.3.clone.1"}
  %multiply.2689.3.clone.1 = s32[1,4,8,16384]{3,2,1,0} multiply(%bitcast.25160.3.clone.1, %bitcast.25134.6), metadata={op_name="jit(train_step)/jit(main)/jvp(Transformer)/decoder/pipeline_module/while/body/pipeline_module.run_iteration_scannable/pipeline_module.run_one_iteration/vmap(layers.func_to_vmap)/layers/layers_0/MoeBlock_0/mul" source_file="/workspace/maxtext/MaxText/layers/moe.py" source_line=1155 scheduling_name="multiply.2689.3.clone.1"}
  %bitcast.25166.1.clone.1 = s32[4,8,8192,2]{3,2,1,0} bitcast(%multiply.2689.3.clone.1), metadata={scheduling_name="bitcast.25166.1.clone.1"}
  %reduce.506.1.clone.1 = s32[4,8,8192]{2,1,0} reduce(%bitcast.25166.1.clone.1, %constant_5288_49), dimensions={3}, to_apply=%region_7.620, metadata={scheduling_name="reduce.506.1.clone.1"}
  ROOT %tuple.548 = (s32[4,8,8192]{2,1,0}, s32[4,8,8192]{2,1,0}) tuple(%reduce.505.1, %reduce.506.1.clone.1), metadata={scheduling_name="tuple.548"}
}

%fused_reduce_window.2 (param_0.3342: s32[1,4,8,64,16]) -> s32[1,4,8,4,16] {
  %param_0.3342 = s32[1,4,8,64,16]{4,3,2,1,0} parameter(0), metadata={scheduling_name="param_0.3342"}
  %slice.2423.1 = s32[1,4,8,64,1]{4,3,2,1,0} slice(%param_0.3342), slice={[0:1], [0:4], [0:8], [0:64], [15:16]}, metadata={scheduling_name="slice.2423.1"}
  %bitcast.25100.1 = s32[1,4,8,4,16]{4,3,2,1,0} bitcast(%slice.2423.1), metadata={scheduling_name="bitcast.25100.1"}
  %constant_5288_36 = s32[] constant(0)
  ROOT %reduce-window.170.1 = s32[1,4,8,4,16]{4,3,2,1,0} reduce-window(%bitcast.25100.1, %constant_5288_36), window={size=1x1x1x1x16 pad=0_0x0_0x0_0x0_0x15_0}, to_apply=%region_7.620, metadata={scheduling_name="reduce-window.170.1"}
}

%fused_reduce_window.3 (param_0.3344: s32[1,4,8,1024,1]) -> s32[1,4,8,64,16] {
  %param_0.3344 = s32[1,4,8,1024,1]{4,3,2,1,0} parameter(0), metadata={scheduling_name="param_0.3344"}
  %bitcast.25092.1 = s32[1,4,8,64,16]{4,3,2,1,0} bitcast(%param_0.3344), metadata={scheduling_name="bitcast.25092.1"}
  %constant_5288_40 = s32[] constant(0)
  ROOT %reduce-window.169.1 = s32[1,4,8,64,16]{4,3,2,1,0} reduce-window(%bitcast.25092.1, %constant_5288_40), window={size=1x1x1x1x16 pad=0_0x0_0x0_0x0_0x15_0}, to_apply=%region_7.620, metadata={scheduling_name="reduce-window.169.1"}
}

%fused_scatter.1 (param_0.2599: bf16[1,4,8192,8], param_1.2724: s32[65536,4], param_2.2518: u32[1,4,8192,2], param_3.1985: u32[1,4,8192,8], param_4.1848: s32[1,4,8192,2,1], param_5.1649: s32[1,4,8192,2,1], param_6.1583: s32[32768,2], param_7.1502: f32[32768,2], param_8.1331: u32[16], param_9.1001: u32[]) -> bf16[1,4,8192,8] {
  %param_0.2599 = bf16[1,4,8192,8]{3,2,1,0} parameter(0), metadata={scheduling_name="param_0.2599"}
  %param_1.2724 = s32[65536,4]{1,0} parameter(1), metadata={scheduling_name="param_1.2724"}
  %param_2.2518 = u32[1,4,8192,2]{3,2,1,0} parameter(2), metadata={scheduling_name="param_2.2518"}
  %param_3.1985 = u32[1,4,8192,8]{3,2,1,0} parameter(3), metadata={scheduling_name="param_3.1985"}
  %param_5.1649 = s32[1,4,8192,2,1]{3,2,1,4,0} parameter(5), metadata={scheduling_name="param_5.1649"}
  %bitcast.24505.22 = s32[1,1,4,8192,2]{4,3,2,1,0} bitcast(%param_5.1649), metadata={scheduling_name="bitcast.24505.22"}
  %param_4.1848 = s32[1,4,8192,2,1]{3,2,1,4,0} parameter(4), metadata={scheduling_name="param_4.1848"}
  %bitcast.24507.22 = s32[1,1,4,8192,2]{4,3,2,1,0} bitcast(%param_4.1848), metadata={scheduling_name="bitcast.24507.22"}
  %param_6.1583 = s32[32768,2]{1,0} parameter(6), metadata={scheduling_name="param_6.1583"}
  %bitcast.24978.19 = s32[1,4,8192,2]{3,2,1,0} bitcast(%param_6.1583), metadata={scheduling_name="bitcast.24978.19"}
  %constant_5288_53 = s32[] constant(0)
  %broadcast.5690.8 = s32[1,4,8192,2]{3,2,1,0} broadcast(%constant_5288_53), dimensions={}, metadata={scheduling_name="broadcast.5690.8"}
  %compare.1707.7 = pred[1,4,8192,2]{3,2,1,0} compare(%bitcast.24978.19, %broadcast.5690.8), direction=LT, metadata={op_name="jit(train_step)/jit(main)/jvp(Transformer)/decoder/pipeline_module/while/body/pipeline_module.run_iteration_scannable/pipeline_module.run_one_iteration/vmap(layers.func_to_vmap)/layers/layers_0/MoeBlock_0/lt" source_file="/workspace/maxtext/MaxText/layers/moe.py" source_line=1000 scheduling_name="compare.1707.7"}
  %constant_5300_2 = s32[] constant(8), metadata={op_name="jit(train_step)/jit(main)/jvp(Transformer)/decoder/pipeline_module/while/body/pipeline_module.run_iteration_scannable/pipeline_module.run_one_iteration/vmap(layers.func_to_vmap)/layers/layers_0/MoeBlock_0/top_k" source_file="/workspace/maxtext/MaxText/layers/moe.py" source_line=375}
  %broadcast.5691.10 = s32[1,4,8192,2]{3,2,1,0} broadcast(%constant_5300_2), dimensions={}, metadata={scheduling_name="broadcast.5691.10"}
  %add.2984.7 = s32[1,4,8192,2]{3,2,1,0} add(%bitcast.24978.19, %broadcast.5691.10), metadata={op_name="jit(train_step)/jit(main)/jvp(Transformer)/decoder/pipeline_module/while/body/pipeline_module.run_iteration_scannable/pipeline_module.run_one_iteration/vmap(layers.func_to_vmap)/layers/layers_0/MoeBlock_0/add" source_file="/workspace/maxtext/MaxText/layers/moe.py" source_line=1000 scheduling_name="add.2984.7"}
  %select.1353.5 = s32[1,4,8192,2]{3,2,1,0} select(%compare.1707.7, %add.2984.7, %bitcast.24978.19), metadata={op_name="jit(train_step)/jit(main)/jvp(Transformer)/decoder/pipeline_module/while/body/pipeline_module.run_iteration_scannable/pipeline_module.run_one_iteration/vmap(layers.func_to_vmap)/layers/layers_0/MoeBlock_0/select_n" source_file="/workspace/maxtext/MaxText/layers/moe.py" source_line=1000 scheduling_name="select.1353.5"}
  %bitcast.24990.13 = s32[1,1,4,8192,2]{4,3,2,1,0} bitcast(%select.1353.5), metadata={scheduling_name="bitcast.24990.13"}
  %concatenate.720.13 = s32[1,3,4,8192,2]{4,3,2,1,0} concatenate(%bitcast.24505.22, %bitcast.24507.22, %bitcast.24990.13), dimensions={1}, metadata={op_name="jit(train_step)/jit(main)/jvp(Transformer)/decoder/pipeline_module/while/body/pipeline_module.run_iteration_scannable/pipeline_module.run_one_iteration/vmap(layers.func_to_vmap)/layers/layers_0/MoeBlock_0/concatenate" source_file="/workspace/maxtext/MaxText/layers/moe.py" source_line=1000 scheduling_name="concatenate.720.13"}
  %constant_5312_2 = u32[1]{0} constant({0}), metadata={op_name="jit(train_step)/jit(main)/jvp(Transformer)/decoder/pipeline_module/while/body/pipeline_module.run_iteration_scannable/pipeline_module.run_one_iteration/vmap(layers.func_to_vmap)/layers/layers_0/MoeBlock_0/scatter-add" source_file="/workspace/maxtext/MaxText/layers/moe.py" source_line=1000}
  %param_8.1331 = u32[16]{0} parameter(8), metadata={scheduling_name="param_8.1331"}
  %param_9.1001 = u32[] parameter(9), metadata={scheduling_name="param_9.1001"}
  %dynamic-slice.1444.3 = u32[1]{0} dynamic-slice(%param_8.1331, %param_9.1001), dynamic_slice_sizes={1}, metadata={op_name="jit(train_step)/jit(main)/jvp(Transformer)/decoder/pipeline_module/while/body/pipeline_module.run_iteration_scannable/pipeline_module.run_one_iteration/vmap(layers.func_to_vmap)/layers/layers_0/MoeBlock_0/scatter-add" source_file="/workspace/maxtext/MaxText/layers/moe.py" source_line=1000 scheduling_name="dynamic-slice.1444.3"}
  %constant_5313_2 = u32[1]{0} constant({7}), metadata={op_name="jit(train_step)/jit(main)/jvp(Transformer)/decoder/pipeline_module/while/body/pipeline_module.run_iteration_scannable/pipeline_module.run_one_iteration/vmap(layers.func_to_vmap)/layers/layers_0/MoeBlock_0/scatter-add" source_file="/workspace/maxtext/MaxText/layers/moe.py" source_line=1000}
  %clamp.27.3 = u32[1]{0} clamp(%constant_5312_2, %dynamic-slice.1444.3, %constant_5313_2), metadata={op_name="jit(train_step)/jit(main)/jvp(Transformer)/decoder/pipeline_module/while/body/pipeline_module.run_iteration_scannable/pipeline_module.run_one_iteration/vmap(layers.func_to_vmap)/layers/layers_0/MoeBlock_0/scatter-add" source_file="/workspace/maxtext/MaxText/layers/moe.py" source_line=1000 scheduling_name="clamp.27.3"}
  %convert.4236.3 = s32[1]{0} convert(%clamp.27.3), metadata={op_name="jit(train_step)/jit(main)/jvp(Transformer)/decoder/pipeline_module/while/body/pipeline_module.run_iteration_scannable/pipeline_module.run_one_iteration/vmap(layers.func_to_vmap)/layers/layers_0/MoeBlock_0/scatter-add" source_file="/workspace/maxtext/MaxText/layers/moe.py" source_line=1000 scheduling_name="convert.4236.3"}
  %constant_5311_4 = s32[1]{0} constant({4}), metadata={op_name="jit(train_step)/jit(main)/jvp(Transformer)/decoder/pipeline_module/while/body/pipeline_module.run_iteration_scannable/pipeline_module.run_one_iteration/pipeline_module.get_microbatch_and_repeat_ids/jit(remainder)/add" source_file="/workspace/maxtext/MaxText/layers/pipeline.py" source_line=219}
  %multiply.2687.3 = s32[1]{0} multiply(%convert.4236.3, %constant_5311_4), metadata={op_name="jit(train_step)/jit(main)/jvp(Transformer)/decoder/pipeline_module/while/body/pipeline_module.run_iteration_scannable/pipeline_module.run_one_iteration/vmap(layers.func_to_vmap)/layers/layers_0/MoeBlock_0/scatter-add" source_file="/workspace/maxtext/MaxText/layers/moe.py" source_line=1000 scheduling_name="multiply.2687.3"}
  %constant_5299_5 = s32[1]{0} constant({0}), metadata={op_name="jit(train_step)/jit(main)/jvp(Transformer)/decoder/pipeline_module/while/body/pipeline_module.run_iteration_scannable/pipeline_module.run_one_iteration/vmap(layers.func_to_vmap)/layers/layers_0/self_attention/DotProductAttention_0/_FusedDotProductAttention_0/custom_partitioning" source_file="/workspace/maxtext/MaxText/layers/attention_op.py" source_line=1148}
  %concatenate.721.4 = s32[3]{0} concatenate(%multiply.2687.3, %constant_5299_5, %constant_5299_5), dimensions={0}, metadata={op_name="jit(train_step)/jit(main)/jvp(Transformer)/decoder/pipeline_module/while/body/pipeline_module.run_iteration_scannable/pipeline_module.run_one_iteration/vmap(layers.func_to_vmap)/layers/layers_0/MoeBlock_0/scatter-add" source_file="/workspace/maxtext/MaxText/layers/moe.py" source_line=1000 scheduling_name="concatenate.721.4"}
  %broadcast.5692.18 = s32[1,3,4,8192,2]{4,3,2,1,0} broadcast(%concatenate.721.4), dimensions={1}, metadata={op_name="jit(train_step)/jit(main)/jvp(Transformer)/decoder/pipeline_module/while/body/pipeline_module.run_iteration_scannable/pipeline_module.run_one_iteration/vmap(layers.func_to_vmap)/layers/layers_0/MoeBlock_0/scatter-add" source_file="/workspace/maxtext/MaxText/layers/moe.py" source_line=1000 scheduling_name="broadcast.5692.18"}
  %subtract.262.11 = s32[1,3,4,8192,2]{4,3,2,1,0} subtract(%concatenate.720.13, %broadcast.5692.18), metadata={op_name="jit(train_step)/jit(main)/jvp(Transformer)/decoder/pipeline_module/while/body/pipeline_module.run_iteration_scannable/pipeline_module.run_one_iteration/vmap(layers.func_to_vmap)/layers/layers_0/MoeBlock_0/scatter-add" source_file="/workspace/maxtext/MaxText/layers/moe.py" source_line=1000 scheduling_name="subtract.262.11"}
  %pad.358.8 = s32[1,4,4,8192,2]{4,3,2,1,0} pad(%subtract.262.11, %constant_5288_53), padding=0_0x1_0x0_0x0_0x0_0, metadata={op_name="jit(train_step)/jit(main)/jvp(Transformer)/decoder/pipeline_module/while/body/pipeline_module.run_iteration_scannable/pipeline_module.run_one_iteration/vmap(layers.func_to_vmap)/layers/layers_0/MoeBlock_0/scatter-add" source_file="/workspace/maxtext/MaxText/layers/moe.py" source_line=1000 scheduling_name="pad.358.8"}
  %bitcast.25028.7 = s32[65536,4]{0,1} bitcast(%pad.358.8), metadata={scheduling_name="bitcast.25028.7"}
  %gather.363.7 = u32[65536,1,1,1,1]{0,4,3,2,1} gather(%param_3.1985, %bitcast.25028.7), offset_dims={1,2,3,4}, collapsed_slice_dims={}, start_index_map={0,1,2,3}, index_vector_dim=1, slice_sizes={1,1,1,1}, metadata={op_name="jit(train_step)/jit(main)/jvp(Transformer)/decoder/pipeline_module/while/body/pipeline_module.run_iteration_scannable/pipeline_module.run_one_iteration/vmap(layers.func_to_vmap)/layers/layers_0/MoeBlock_0/gather" source_file="/workspace/maxtext/MaxText/layers/moe.py" source_line=1000 scheduling_name="gather.363.7"}
  %bitcast.25031.5 = u32[1,4,8192,2]{3,2,1,0} bitcast(%gather.363.7), metadata={scheduling_name="bitcast.25031.5"}
  %compare.1708.5 = pred[1,4,8192,2]{3,2,1,0} compare(%param_2.2518, %bitcast.25031.5), direction=EQ, metadata={op_name="jit(train_step)/jit(main)/jvp(Transformer)/decoder/pipeline_module/while/body/pipeline_module.run_iteration_scannable/pipeline_module.run_one_iteration/vmap(layers.func_to_vmap)/layers/layers_0/MoeBlock_0/eq" source_file="/workspace/maxtext/MaxText/layers/moe.py" source_line=1000 scheduling_name="compare.1708.5"}
  %param_7.1502 = f32[32768,2]{1,0} parameter(7), metadata={scheduling_name="param_7.1502"}
  %bitcast.25036.9 = f32[1,4,8192,2]{3,2,1,0} bitcast(%param_7.1502), metadata={scheduling_name="bitcast.25036.9"}
  %constant_5302_2 = f32[] constant(-inf)
  %reduce.393.1 = f32[32768]{0} reduce(%param_7.1502, %constant_5302_2), dimensions={1}, to_apply=%region_3.593, metadata={op_name="jit(train_step)/jit(main)/jvp(Transformer)/decoder/pipeline_module/while/body/pipeline_module.run_iteration_scannable/pipeline_module.run_one_iteration/vmap(layers.func_to_vmap)/layers/layers_0/MoeBlock_0/reduce_max" source_file="/workspace/maxtext/MaxText/layers/moe.py" source_line=380 scheduling_name="reduce.393.1"}
  %bitcast.25043.9 = f32[4,8192]{1,0} bitcast(%reduce.393.1), metadata={scheduling_name="bitcast.25043.9"}
  %broadcast.5694.9 = f32[1,4,8192,2]{3,2,1,0} broadcast(%bitcast.25043.9), dimensions={1,2}, metadata={op_name="jit(train_step)/jit(main)/jvp(Transformer)/decoder/pipeline_module/while/body/pipeline_module.run_iteration_scannable/pipeline_module.run_one_iteration/vmap(layers.func_to_vmap)/layers/layers_0/MoeBlock_0/sub" source_file="/workspace/maxtext/MaxText/layers/moe.py" source_line=380 scheduling_name="broadcast.5694.9"}
  %subtract.263.9 = f32[1,4,8192,2]{3,2,1,0} subtract(%bitcast.25036.9, %broadcast.5694.9), metadata={op_name="jit(train_step)/jit(main)/jvp(Transformer)/decoder/pipeline_module/while/body/pipeline_module.run_iteration_scannable/pipeline_module.run_one_iteration/vmap(layers.func_to_vmap)/layers/layers_0/MoeBlock_0/sub" source_file="/workspace/maxtext/MaxText/layers/moe.py" source_line=380 scheduling_name="subtract.263.9"}
  %exponential.97.7 = f32[1,4,8192,2]{3,2,1,0} exponential(%subtract.263.9), metadata={op_name="jit(train_step)/jit(main)/jvp(Transformer)/decoder/pipeline_module/while/body/pipeline_module.run_iteration_scannable/pipeline_module.run_one_iteration/vmap(layers.func_to_vmap)/layers/layers_0/MoeBlock_0/exp" source_file="/workspace/maxtext/MaxText/layers/moe.py" source_line=380 scheduling_name="exponential.97.7"}
  %bitcast.25051.3 = f32[4,8192,2]{2,1,0} bitcast(%exponential.97.7), metadata={scheduling_name="bitcast.25051.3"}
  %constant_5293_6 = f32[] constant(0)
  %reduce.429.3 = f32[4,8192]{1,0} reduce(%bitcast.25051.3, %constant_5293_6), dimensions={2}, to_apply=%region_1.585, metadata={op_name="jit(train_step)/jit(main)/jvp(Transformer)/decoder/pipeline_module/while/body/pipeline_module.run_iteration_scannable/pipeline_module.run_one_iteration/vmap(layers.func_to_vmap)/layers/layers_0/MoeBlock_0/reduce_sum" source_file="/workspace/maxtext/MaxText/layers/moe.py" source_line=380 scheduling_name="reduce.429.3"}
  %broadcast.5695.5 = f32[1,4,8192,2]{3,2,1,0} broadcast(%reduce.429.3), dimensions={1,2}, metadata={op_name="jit(train_step)/jit(main)/jvp(Transformer)/decoder/pipeline_module/while/body/pipeline_module.run_iteration_scannable/pipeline_module.run_one_iteration/vmap(layers.func_to_vmap)/layers/layers_0/MoeBlock_0/div" source_file="/workspace/maxtext/MaxText/layers/moe.py" source_line=380 scheduling_name="broadcast.5695.5"}
  %divide.473.5 = f32[1,4,8192,2]{3,2,1,0} divide(%exponential.97.7, %broadcast.5695.5), metadata={op_name="jit(train_step)/jit(main)/jvp(Transformer)/decoder/pipeline_module/while/body/pipeline_module.run_iteration_scannable/pipeline_module.run_one_iteration/vmap(layers.func_to_vmap)/layers/layers_0/MoeBlock_0/div" source_file="/workspace/maxtext/MaxText/layers/moe.py" source_line=380 scheduling_name="divide.473.5"}
  %convert.4237.3 = bf16[1,4,8192,2]{3,2,1,0} convert(%divide.473.5), metadata={op_name="jit(train_step)/jit(main)/jvp(Transformer)/decoder/pipeline_module/while/body/pipeline_module.run_iteration_scannable/pipeline_module.run_one_iteration/vmap(layers.func_to_vmap)/layers/layers_0/MoeBlock_0/convert_element_type" source_file="/workspace/maxtext/MaxText/layers/moe.py" source_line=380 scheduling_name="convert.4237.3"}
  %constant_5291_6 = bf16[] constant(0)
  %broadcast.5696.1 = bf16[1,4,8192,2]{3,2,1,0} broadcast(%constant_5291_6), dimensions={}, metadata={scheduling_name="broadcast.5696.1"}
  %select.1354.3 = bf16[1,4,8192,2]{3,2,1,0} select(%compare.1708.5, %convert.4237.3, %broadcast.5696.1), metadata={op_name="jit(train_step)/jit(main)/jvp(Transformer)/decoder/pipeline_module/while/body/pipeline_module.run_iteration_scannable/pipeline_module.run_one_iteration/vmap(layers.func_to_vmap)/layers/layers_0/MoeBlock_0/select_n" source_file="/workspace/maxtext/MaxText/layers/moe.py" source_line=1000 scheduling_name="select.1354.3"}
  %bitcast.25063.1 = bf16[65536,1,1,1,1]{4,3,2,1,0} bitcast(%select.1354.3), metadata={scheduling_name="bitcast.25063.1"}
  ROOT %scatter.218.1 = bf16[1,4,8192,8]{3,2,1,0} scatter(%param_0.2599, %param_1.2724, %bitcast.25063.1), update_window_dims={1,2,3,4}, inserted_window_dims={}, scatter_dims_to_operand_dims={0,1,2,3}, index_vector_dim=1, to_apply=%region_6.604, metadata={op_name="jit(train_step)/jit(main)/jvp(Transformer)/decoder/pipeline_module/while/body/pipeline_module.run_iteration_scannable/pipeline_module.run_one_iteration/vmap(layers.func_to_vmap)/layers/layers_0/MoeBlock_0/scatter-add" source_file="/workspace/maxtext/MaxText/layers/moe.py" source_line=1000 scheduling_name="scatter.218.1"}
}

%region_5.601 (Arg_0.602: u32[], Arg_1.603: u32[]) -> u32[] {
  ROOT %Arg_1.603 = u32[] parameter(1), metadata={op_name="jit(train_step)/jit(main)/jvp(Transformer)/decoder/pipeline_module/while/body/pipeline_module.run_iteration_scannable/pipeline_module.run_one_iteration/vmap(layers.func_to_vmap)/layers/layers_0/MoeBlock_0/scatter" scheduling_name="Arg_1.603"}
  %Arg_0.602 = u32[] parameter(0), metadata={op_name="jit(train_step)/jit(main)/jvp(Transformer)/decoder/pipeline_module/while/body/pipeline_module.run_iteration_scannable/pipeline_module.run_one_iteration/vmap(layers.func_to_vmap)/layers/layers_0/MoeBlock_0/scatter" scheduling_name="Arg_0.602"}
}

%fused_scatter.2 (param_0.2608: u32[1,4,8192,8], param_1.2733: s32[65536,4], param_2.2088: u32[1,4,8192,2]) -> u32[1,4,8192,8] {
  %param_0.2608 = u32[1,4,8192,8]{3,2,1,0} parameter(0), metadata={scheduling_name="param_0.2608"}
  %param_1.2733 = s32[65536,4]{1,0} parameter(1), metadata={scheduling_name="param_1.2733"}
  %param_2.2088 = u32[1,4,8192,2]{3,2,1,0} parameter(2), metadata={scheduling_name="param_2.2088"}
  %bitcast.25022.1 = u32[65536,1,1,1,1]{4,3,2,1,0} bitcast(%param_2.2088), metadata={scheduling_name="bitcast.25022.1"}
  ROOT %scatter.217.1 = u32[1,4,8192,8]{3,2,1,0} scatter(%param_0.2608, %param_1.2733, %bitcast.25022.1), update_window_dims={1,2,3,4}, inserted_window_dims={}, scatter_dims_to_operand_dims={0,1,2,3}, index_vector_dim=1, to_apply=%region_5.601, metadata={op_name="jit(train_step)/jit(main)/jvp(Transformer)/decoder/pipeline_module/while/body/pipeline_module.run_iteration_scannable/pipeline_module.run_one_iteration/vmap(layers.func_to_vmap)/layers/layers_0/MoeBlock_0/scatter" source_file="/workspace/maxtext/MaxText/layers/moe.py" source_line=1000 scheduling_name="scatter.217.1"}
}

%fused_scatter.3 (param_0.2609: u32[1,4,8192,8], param_1.2734: s32[65536,4], param_2.2090: u32[1,4,8192,2]) -> u32[1,4,8192,8] {
  %param_0.2609 = u32[1,4,8192,8]{3,2,1,0} parameter(0), metadata={scheduling_name="param_0.2609"}
  %param_1.2734 = s32[65536,4]{1,0} parameter(1), metadata={scheduling_name="param_1.2734"}
  %param_2.2090 = u32[1,4,8192,2]{3,2,1,0} parameter(2), metadata={scheduling_name="param_2.2090"}
  %bitcast.25022.2 = u32[65536,1,1,1,1]{4,3,2,1,0} bitcast(%param_2.2090), metadata={scheduling_name="bitcast.25022.2"}
  ROOT %scatter.219.1 = u32[1,4,8192,8]{3,2,1,0} scatter(%param_0.2609, %param_1.2734, %bitcast.25022.2), update_window_dims={1,2,3,4}, inserted_window_dims={}, scatter_dims_to_operand_dims={0,1,2,3}, index_vector_dim=1, to_apply=%region_5.601, metadata={op_name="jit(train_step)/jit(main)/jvp(Transformer)/decoder/pipeline_module/while/body/pipeline_module.run_iteration_scannable/pipeline_module.run_one_iteration/vmap(layers.func_to_vmap)/layers/layers_1/MoeBlock_0/scatter" source_file="/workspace/maxtext/MaxText/layers/moe.py" source_line=1000 scheduling_name="scatter.219.1"}
}

%fused_transpose.5 (param_0.3337: s32[1,4,8192,2,1], param_1.3486: s32[1,4,8192,2,1], param_2.2709: s32[32768,2], param_3.2305: u32[16], param_4.1934: u32[]) -> s32[65536,4] {
  %param_1.3486 = s32[1,4,8192,2,1]{3,2,1,4,0} parameter(1), metadata={scheduling_name="param_1.3486"}
  %bitcast.24505.14 = s32[1,1,4,8192,2]{4,3,2,1,0} bitcast(%param_1.3486), metadata={scheduling_name="bitcast.24505.14"}
  %param_0.3337 = s32[1,4,8192,2,1]{3,2,1,4,0} parameter(0), metadata={scheduling_name="param_0.3337"}
  %bitcast.24507.14 = s32[1,1,4,8192,2]{4,3,2,1,0} bitcast(%param_0.3337), metadata={scheduling_name="bitcast.24507.14"}
  %param_2.2709 = s32[32768,2]{1,0} parameter(2), metadata={scheduling_name="param_2.2709"}
  %bitcast.24978.13 = s32[1,4,8192,2]{3,2,1,0} bitcast(%param_2.2709), metadata={scheduling_name="bitcast.24978.13"}
  %constant_5288_14 = s32[] constant(0)
  %broadcast.5690.6 = s32[1,4,8192,2]{3,2,1,0} broadcast(%constant_5288_14), dimensions={}, metadata={scheduling_name="broadcast.5690.6"}
  %compare.1707.5 = pred[1,4,8192,2]{3,2,1,0} compare(%bitcast.24978.13, %broadcast.5690.6), direction=LT, metadata={op_name="jit(train_step)/jit(main)/jvp(Transformer)/decoder/pipeline_module/while/body/pipeline_module.run_iteration_scannable/pipeline_module.run_one_iteration/vmap(layers.func_to_vmap)/layers/layers_0/MoeBlock_0/lt" source_file="/workspace/maxtext/MaxText/layers/moe.py" source_line=1000 scheduling_name="compare.1707.5"}
  %constant_5300_3 = s32[] constant(8), metadata={op_name="jit(train_step)/jit(main)/jvp(Transformer)/decoder/pipeline_module/while/body/pipeline_module.run_iteration_scannable/pipeline_module.run_one_iteration/vmap(layers.func_to_vmap)/layers/layers_0/MoeBlock_0/top_k" source_file="/workspace/maxtext/MaxText/layers/moe.py" source_line=375}
  %broadcast.5691.8 = s32[1,4,8192,2]{3,2,1,0} broadcast(%constant_5300_3), dimensions={}, metadata={scheduling_name="broadcast.5691.8"}
  %add.2984.5 = s32[1,4,8192,2]{3,2,1,0} add(%bitcast.24978.13, %broadcast.5691.8), metadata={op_name="jit(train_step)/jit(main)/jvp(Transformer)/decoder/pipeline_module/while/body/pipeline_module.run_iteration_scannable/pipeline_module.run_one_iteration/vmap(layers.func_to_vmap)/layers/layers_0/MoeBlock_0/add" source_file="/workspace/maxtext/MaxText/layers/moe.py" source_line=1000 scheduling_name="add.2984.5"}
  %select.1353.3 = s32[1,4,8192,2]{3,2,1,0} select(%compare.1707.5, %add.2984.5, %bitcast.24978.13), metadata={op_name="jit(train_step)/jit(main)/jvp(Transformer)/decoder/pipeline_module/while/body/pipeline_module.run_iteration_scannable/pipeline_module.run_one_iteration/vmap(layers.func_to_vmap)/layers/layers_0/MoeBlock_0/select_n" source_file="/workspace/maxtext/MaxText/layers/moe.py" source_line=1000 scheduling_name="select.1353.3"}
  %bitcast.24990.7 = s32[1,1,4,8192,2]{4,3,2,1,0} bitcast(%select.1353.3), metadata={scheduling_name="bitcast.24990.7"}
  %concatenate.720.7 = s32[1,3,4,8192,2]{4,3,2,1,0} concatenate(%bitcast.24505.14, %bitcast.24507.14, %bitcast.24990.7), dimensions={1}, metadata={op_name="jit(train_step)/jit(main)/jvp(Transformer)/decoder/pipeline_module/while/body/pipeline_module.run_iteration_scannable/pipeline_module.run_one_iteration/vmap(layers.func_to_vmap)/layers/layers_0/MoeBlock_0/concatenate" source_file="/workspace/maxtext/MaxText/layers/moe.py" source_line=1000 scheduling_name="concatenate.720.7"}
  %constant_5312_3 = u32[1]{0} constant({0}), metadata={op_name="jit(train_step)/jit(main)/jvp(Transformer)/decoder/pipeline_module/while/body/pipeline_module.run_iteration_scannable/pipeline_module.run_one_iteration/vmap(layers.func_to_vmap)/layers/layers_0/MoeBlock_0/scatter-add" source_file="/workspace/maxtext/MaxText/layers/moe.py" source_line=1000}
  %param_3.2305 = u32[16]{0} parameter(3), metadata={scheduling_name="param_3.2305"}
  %param_4.1934 = u32[] parameter(4), metadata={scheduling_name="param_4.1934"}
  %dynamic-slice.1444.5 = u32[1]{0} dynamic-slice(%param_3.2305, %param_4.1934), dynamic_slice_sizes={1}, metadata={op_name="jit(train_step)/jit(main)/jvp(Transformer)/decoder/pipeline_module/while/body/pipeline_module.run_iteration_scannable/pipeline_module.run_one_iteration/vmap(layers.func_to_vmap)/layers/layers_0/MoeBlock_0/scatter-add" source_file="/workspace/maxtext/MaxText/layers/moe.py" source_line=1000 scheduling_name="dynamic-slice.1444.5"}
  %constant_5313_3 = u32[1]{0} constant({7}), metadata={op_name="jit(train_step)/jit(main)/jvp(Transformer)/decoder/pipeline_module/while/body/pipeline_module.run_iteration_scannable/pipeline_module.run_one_iteration/vmap(layers.func_to_vmap)/layers/layers_0/MoeBlock_0/scatter-add" source_file="/workspace/maxtext/MaxText/layers/moe.py" source_line=1000}
  %clamp.27.5 = u32[1]{0} clamp(%constant_5312_3, %dynamic-slice.1444.5, %constant_5313_3), metadata={op_name="jit(train_step)/jit(main)/jvp(Transformer)/decoder/pipeline_module/while/body/pipeline_module.run_iteration_scannable/pipeline_module.run_one_iteration/vmap(layers.func_to_vmap)/layers/layers_0/MoeBlock_0/scatter-add" source_file="/workspace/maxtext/MaxText/layers/moe.py" source_line=1000 scheduling_name="clamp.27.5"}
  %convert.4236.5 = s32[1]{0} convert(%clamp.27.5), metadata={op_name="jit(train_step)/jit(main)/jvp(Transformer)/decoder/pipeline_module/while/body/pipeline_module.run_iteration_scannable/pipeline_module.run_one_iteration/vmap(layers.func_to_vmap)/layers/layers_0/MoeBlock_0/scatter-add" source_file="/workspace/maxtext/MaxText/layers/moe.py" source_line=1000 scheduling_name="convert.4236.5"}
  %constant_5311_5 = s32[1]{0} constant({4}), metadata={op_name="jit(train_step)/jit(main)/jvp(Transformer)/decoder/pipeline_module/while/body/pipeline_module.run_iteration_scannable/pipeline_module.run_one_iteration/pipeline_module.get_microbatch_and_repeat_ids/jit(remainder)/add" source_file="/workspace/maxtext/MaxText/layers/pipeline.py" source_line=219}
  %multiply.2687.5 = s32[1]{0} multiply(%convert.4236.5, %constant_5311_5), metadata={op_name="jit(train_step)/jit(main)/jvp(Transformer)/decoder/pipeline_module/while/body/pipeline_module.run_iteration_scannable/pipeline_module.run_one_iteration/vmap(layers.func_to_vmap)/layers/layers_0/MoeBlock_0/scatter-add" source_file="/workspace/maxtext/MaxText/layers/moe.py" source_line=1000 scheduling_name="multiply.2687.5"}
  %constant_5299_7 = s32[1]{0} constant({0}), metadata={op_name="jit(train_step)/jit(main)/jvp(Transformer)/decoder/pipeline_module/while/body/pipeline_module.run_iteration_scannable/pipeline_module.run_one_iteration/vmap(layers.func_to_vmap)/layers/layers_0/self_attention/DotProductAttention_0/_FusedDotProductAttention_0/custom_partitioning" source_file="/workspace/maxtext/MaxText/layers/attention_op.py" source_line=1148}
  %concatenate.721.1 = s32[3]{0} concatenate(%multiply.2687.5, %constant_5299_7, %constant_5299_7), dimensions={0}, metadata={op_name="jit(train_step)/jit(main)/jvp(Transformer)/decoder/pipeline_module/while/body/pipeline_module.run_iteration_scannable/pipeline_module.run_one_iteration/vmap(layers.func_to_vmap)/layers/layers_0/MoeBlock_0/scatter-add" source_file="/workspace/maxtext/MaxText/layers/moe.py" source_line=1000 scheduling_name="concatenate.721.1"}
  %broadcast.5692.10 = s32[1,3,4,8192,2]{4,3,2,1,0} broadcast(%concatenate.721.1), dimensions={1}, metadata={op_name="jit(train_step)/jit(main)/jvp(Transformer)/decoder/pipeline_module/while/body/pipeline_module.run_iteration_scannable/pipeline_module.run_one_iteration/vmap(layers.func_to_vmap)/layers/layers_0/MoeBlock_0/scatter-add" source_file="/workspace/maxtext/MaxText/layers/moe.py" source_line=1000 scheduling_name="broadcast.5692.10"}
  %subtract.262.5 = s32[1,3,4,8192,2]{4,3,2,1,0} subtract(%concatenate.720.7, %broadcast.5692.10), metadata={op_name="jit(train_step)/jit(main)/jvp(Transformer)/decoder/pipeline_module/while/body/pipeline_module.run_iteration_scannable/pipeline_module.run_one_iteration/vmap(layers.func_to_vmap)/layers/layers_0/MoeBlock_0/scatter-add" source_file="/workspace/maxtext/MaxText/layers/moe.py" source_line=1000 scheduling_name="subtract.262.5"}
  %pad.358.1 = s32[1,4,4,8192,2]{4,3,2,1,0} pad(%subtract.262.5, %constant_5288_14), padding=0_0x1_0x0_0x0_0x0_0, metadata={op_name="jit(train_step)/jit(main)/jvp(Transformer)/decoder/pipeline_module/while/body/pipeline_module.run_iteration_scannable/pipeline_module.run_one_iteration/vmap(layers.func_to_vmap)/layers/layers_0/MoeBlock_0/scatter-add" source_file="/workspace/maxtext/MaxText/layers/moe.py" source_line=1000 scheduling_name="pad.358.1"}
  %bitcast.25010.1 = s32[4,65536]{1,0} bitcast(%pad.358.1), metadata={scheduling_name="bitcast.25010.1"}
  ROOT %transpose.761.1 = s32[65536,4]{1,0} transpose(%bitcast.25010.1), dimensions={1,0}, metadata={scheduling_name="transpose.761.1"}
}

%fused_dynamic_slice.1 (param_0.2618: bf16[1,2,768,8], param_1.3526: s32[1], param_2.2787: s32[]) -> bf16[1,1,768,8] {
  %param_0.2618 = bf16[1,2,768,8]{3,2,1,0} parameter(0), metadata={scheduling_name="param_0.2618"}
  %constant_5288_3 = s32[] constant(0)
  %constant_5310_1 = s32[1,1]{1,0} constant({ {0} })
  %param_2.2787 = s32[] parameter(2), metadata={scheduling_name="param_2.2787"}
  %bitcast.24639.12 = s32[1]{0} bitcast(%param_2.2787), metadata={scheduling_name="bitcast.24639.12"}
  %param_1.3526 = s32[1]{0} parameter(1), metadata={scheduling_name="param_1.3526"}
  %subtract.259.11 = s32[1]{0} subtract(%bitcast.24639.12, %param_1.3526), metadata={op_name="jit(train_step)/jit(main)/jvp(Transformer)/decoder/pipeline_module/while/body/pipeline_module.run_iteration_scannable/pipeline_module.run_one_iteration/pipeline_module.get_current_stage_weights/pipeline_module.get_current_repeat_from_stages/pipeline_module.get_microbatch_and_repeat_ids/sub" source_file="/workspace/maxtext/MaxText/layers/pipeline.py" source_line=218 scheduling_name="subtract.259.11"}
  %constant_5299_2 = s32[1]{0} constant({0}), metadata={op_name="jit(train_step)/jit(main)/jvp(Transformer)/decoder/pipeline_module/while/body/pipeline_module.run_iteration_scannable/pipeline_module.run_one_iteration/vmap(layers.func_to_vmap)/layers/layers_0/self_attention/DotProductAttention_0/_FusedDotProductAttention_0/custom_partitioning" source_file="/workspace/maxtext/MaxText/layers/attention_op.py" source_line=1148}
  %maximum.48.4 = s32[1]{0} maximum(%subtract.259.11, %constant_5299_2), metadata={op_name="jit(train_step)/jit(main)/jvp(Transformer)/decoder/pipeline_module/while/body/pipeline_module.run_iteration_scannable/pipeline_module.run_one_iteration/pipeline_module.get_current_stage_weights/pipeline_module.get_current_repeat_from_stages/pipeline_module.get_microbatch_and_repeat_ids/max" source_file="/workspace/maxtext/MaxText/layers/pipeline.py" source_line=218 scheduling_name="maximum.48.4"}
  %sign.28.3 = s32[1]{0} sign(%maximum.48.4), metadata={op_name="jit(train_step)/jit(main)/jvp(Transformer)/decoder/pipeline_module/while/body/pipeline_module.run_iteration_scannable/pipeline_module.run_one_iteration/pipeline_module.get_current_stage_weights/pipeline_module.get_current_repeat_from_stages/pipeline_module.get_microbatch_and_repeat_ids/jit(floor_divide)/sign" source_file="/workspace/maxtext/MaxText/layers/pipeline.py" source_line=220 scheduling_name="sign.28.3"}
  %constant_5306_3 = s32[1]{0} constant({1}), metadata={op_name="jit(train_step)/jit(main)/jvp(Transformer)/decoder/pipeline_module/while/body/pipeline_module.run_iteration_scannable/pipeline_module.run_one_iteration/pipeline_module.get_current_stage_weights/pipeline_module.get_current_repeat_from_stages/pipeline_module.get_microbatch_and_repeat_ids/jit(floor_divide)/ne" source_file="/workspace/maxtext/MaxText/layers/pipeline.py" source_line=220}
  %compare.1702.2 = pred[1]{0} compare(%sign.28.3, %constant_5306_3), direction=NE, metadata={op_name="jit(train_step)/jit(main)/jvp(Transformer)/decoder/pipeline_module/while/body/pipeline_module.run_iteration_scannable/pipeline_module.run_one_iteration/pipeline_module.get_current_stage_weights/pipeline_module.get_current_repeat_from_stages/pipeline_module.get_microbatch_and_repeat_ids/jit(floor_divide)/ne" source_file="/workspace/maxtext/MaxText/layers/pipeline.py" source_line=220 scheduling_name="compare.1702.2"}
  %constant_5307_5 = s32[1]{0} constant({3}), metadata={op_name="jit(train_step)/jit(main)/jvp(Transformer)/decoder/pipeline_module/while/body/pipeline_module.run_iteration_scannable/pipeline_module.run_one_iteration/pipeline_module.get_current_stage_weights/pipeline_module.get_current_repeat_from_stages/pipeline_module.get_microbatch_and_repeat_ids/jit(floor_divide)/rem" source_file="/workspace/maxtext/MaxText/layers/pipeline.py" source_line=220}
  %and.321.4 = s32[1]{0} and(%maximum.48.4, %constant_5307_5), metadata={op_name="jit(train_step)/jit(main)/jvp(Transformer)/decoder/pipeline_module/while/body/pipeline_module.run_iteration_scannable/pipeline_module.run_one_iteration/pipeline_module.get_current_stage_weights/pipeline_module.get_current_repeat_from_stages/pipeline_module.get_microbatch_and_repeat_ids/jit(floor_divide)/rem" source_file="/workspace/maxtext/MaxText/layers/pipeline.py" source_line=220 scheduling_name="and.321.4"}
  %compare.1703.3 = pred[1]{0} compare(%and.321.4, %constant_5299_2), direction=NE, metadata={op_name="jit(train_step)/jit(main)/jvp(Transformer)/decoder/pipeline_module/while/body/pipeline_module.run_iteration_scannable/pipeline_module.run_one_iteration/pipeline_module.get_current_stage_weights/pipeline_module.get_current_repeat_from_stages/pipeline_module.get_microbatch_and_repeat_ids/jit(floor_divide)/ne" source_file="/workspace/maxtext/MaxText/layers/pipeline.py" source_line=220 scheduling_name="compare.1703.3"}
  %and.322.1 = pred[1]{0} and(%compare.1702.2, %compare.1703.3), metadata={op_name="jit(train_step)/jit(main)/jvp(Transformer)/decoder/pipeline_module/while/body/pipeline_module.run_iteration_scannable/pipeline_module.run_one_iteration/pipeline_module.get_current_stage_weights/pipeline_module.get_current_repeat_from_stages/pipeline_module.get_microbatch_and_repeat_ids/jit(floor_divide)/and" source_file="/workspace/maxtext/MaxText/layers/pipeline.py" source_line=220 scheduling_name="and.322.1"}
…
  %input_reduce_fusion.32 = f32[128]{0} fusion(%get-tuple-element.4232), kind=kInput, calls=%fused_reduce.32, metadata={op_name="jit(train_step)/jit(main)/reduce_sum" source_file="/workspace/maxtext/MaxText/max_utils.py" source_line=73 deduplicated_name="input_reduce_fusion.21" scheduling_name="input_reduce_fusion.32"}
  %input_convert_reduce_fusion.15 = (bf16[2,1,1,16384,6144]{4,3,2,1,0}, bf16[2,1,1,16384,6144]{4,3,2,1,0}, f32[24576]{0}, bf16[2,1,1,16384,6144]{4,3,2,1,0}, f32[24576]{0}) fusion(%param.29, %loop_subtract_fusion, %param.65, %get-tuple-element.4254, %param.64, /*index=5*/%get-tuple-element.1376.0, %get-tuple-element.4228, %get-tuple-element.4227, %loop_multiply_fusion.7), kind=kInput, calls=%fused_convert_reduce.15, metadata={deduplicated_name="input_convert_reduce_fusion.12" scheduling_name="input_convert_reduce_fusion.15"}
  %input_reduce_fusion.102 = f32[] fusion(%input_reduce_fusion.32), kind=kInput, calls=%fused_reduce.102, metadata={op_name="jit(train_step)/jit(main)/reduce_sum" source_file="/workspace/maxtext/MaxText/max_utils.py" source_line=73 deduplicated_name="input_reduce_fusion.71" scheduling_name="input_reduce_fusion.102"}
  %get-tuple-element.4158 = f32[24576]{0} get-tuple-element(%input_convert_reduce_fusion.15), index=2, metadata={scheduling_name="get-tuple-element.4158"}
  %input_reduce_fusion.21 = f32[128]{0} fusion(%get-tuple-element.4158), kind=kInput, calls=%fused_reduce.21, metadata={op_name="jit(train_step)/jit(main)/reduce_sum" source_file="/workspace/maxtext/MaxText/max_utils.py" source_line=73 deduplicated_name="input_reduce_fusion.21" scheduling_name="input_reduce_fusion.21"}
  %input_reduce_fusion.75 = f32[] fusion(%input_reduce_fusion.21), kind=kInput, calls=%fused_reduce.75, metadata={op_name="jit(train_step)/jit(main)/reduce_sum" source_file="/workspace/maxtext/MaxText/max_utils.py" source_line=73 deduplicated_name="input_reduce_fusion.71" scheduling_name="input_reduce_fusion.75"}
  %get-tuple-element.4238 = f32[24576]{0} get-tuple-element(%input_convert_reduce_fusion.15), index=4, metadata={scheduling_name="get-tuple-element.4238"}
  %input_reduce_fusion.29 = f32[128]{0} fusion(%get-tuple-element.4238), kind=kInput, calls=%fused_reduce.29, metadata={op_name="jit(train_step)/jit(main)/reduce_sum" source_file="/workspace/maxtext/MaxText/max_utils.py" source_line=73 deduplicated_name="input_reduce_fusion.21" scheduling_name="input_reduce_fusion.29"}
  %input_convert_reduce_fusion.14 = (bf16[2,1,1,6144,16384]{4,3,2,1,0}, bf16[2,1,1,6144,16384]{4,3,2,1,0}, f32[24576]{0}, bf16[2,1,1,6144,16384]{4,3,2,1,0}, f32[24576]{0}) fusion(%param.28, %loop_subtract_fusion, %param.63, %get-tuple-element.4254, %param.62, /*index=5*/%get-tuple-element.1375.0, %get-tuple-element.4228, %get-tuple-element.4227, %loop_multiply_fusion.7), kind=kInput, calls=%fused_convert_reduce.14, metadata={deduplicated_name="input_convert_reduce_fusion.10" scheduling_name="input_convert_reduce_fusion.14"}
  %input_reduce_fusion.109 = f32[] fusion(%input_reduce_fusion.29), kind=kInput, calls=%fused_reduce.109, metadata={op_name="jit(train_step)/jit(main)/reduce_sum" source_file="/workspace/maxtext/MaxText/max_utils.py" source_line=73 deduplicated_name="input_reduce_fusion.71" scheduling_name="input_reduce_fusion.109"}
  %get-tuple-element.4162 = f32[24576]{0} get-tuple-element(%input_convert_reduce_fusion.14), index=2, metadata={scheduling_name="get-tuple-element.4162"}
  %input_reduce_fusion.22 = f32[128]{0} fusion(%get-tuple-element.4162), kind=kInput, calls=%fused_reduce.22, metadata={op_name="jit(train_step)/jit(main)/reduce_sum" source_file="/workspace/maxtext/MaxText/max_utils.py" source_line=73 deduplicated_name="input_reduce_fusion.21" scheduling_name="input_reduce_fusion.22"}
  %input_reduce_fusion.74 = f32[] fusion(%input_reduce_fusion.22), kind=kInput, calls=%fused_reduce.74, metadata={op_name="jit(train_step)/jit(main)/reduce_sum" source_file="/workspace/maxtext/MaxText/max_utils.py" source_line=73 deduplicated_name="input_reduce_fusion.71" scheduling_name="input_reduce_fusion.74"}
  %bitcast.32146 = f32[1]{0} bitcast(%input_reduce_fusion.118), metadata={scheduling_name="bitcast.32146"}
  %bitcast.32148 = f32[1]{0} bitcast(%input_reduce_fusion.114), metadata={scheduling_name="bitcast.32148"}
  %bitcast.32149 = f32[1]{0} bitcast(%input_reduce_fusion.99), metadata={scheduling_name="bitcast.32149"}
  %bitcast.32147 = f32[1]{0} bitcast(%input_reduce_fusion.120), metadata={scheduling_name="bitcast.32147"}
  %wrapped_concatenate.4 = f32[4]{0} fusion(%bitcast.32146, %bitcast.32147, %bitcast.32148, %bitcast.32149), kind=kLoop, calls=%wrapped_concatenate_computation.4, metadata={scheduling_name="wrapped_concatenate.4"}
  %get-tuple-element.4237 = f32[24576]{0} get-tuple-element(%input_convert_reduce_fusion.14), index=4, metadata={scheduling_name="get-tuple-element.4237"}
  %input_reduce_fusion.30 = f32[128]{0} fusion(%get-tuple-element.4237), kind=kInput, calls=%fused_reduce.30, metadata={op_name="jit(train_step)/jit(main)/reduce_sum" source_file="/workspace/maxtext/MaxText/max_utils.py" source_line=73 deduplicated_name="input_reduce_fusion.21" scheduling_name="input_reduce_fusion.30"}
  %input_reduce_fusion.108 = f32[] fusion(%input_reduce_fusion.30), kind=kInput, calls=%fused_reduce.108, metadata={op_name="jit(train_step)/jit(main)/reduce_sum" source_file="/workspace/maxtext/MaxText/max_utils.py" source_line=73 deduplicated_name="input_reduce_fusion.71" scheduling_name="input_reduce_fusion.108"}
  %bitcast.32186 = f32[1]{0} bitcast(%input_reduce_fusion.119), metadata={scheduling_name="bitcast.32186"}
  %get-tuple-element.4220 = f32[] get-tuple-element(%input_add_convert_reduce_fusion.6), index=3, metadata={op_name="jit(train_step)/jit(main)/add" source_file="/workspace/maxtext/MaxText/train.py" source_line=447 scheduling_name="get-tuple-element.4220"}
  %bitcast.32185 = f32[1]{0} bitcast(%get-tuple-element.4220), metadata={scheduling_name="bitcast.32185"}
  %get-tuple-element.4215 = f32[] get-tuple-element(%input_convert_reduce_fusion.7), index=0, metadata={op_name="jit(train_step)/jit(main)/reduce_sum" source_file="/workspace/maxtext/MaxText/max_utils.py" source_line=73 scheduling_name="get-tuple-element.4215"}
  %bitcast.32169 = f32[1]{0} bitcast(%get-tuple-element.4215), metadata={scheduling_name="bitcast.32169"}
  %get-tuple-element.4173 = f32[] get-tuple-element(%input_add_convert_reduce_fusion.3), index=3, metadata={op_name="jit(train_step)/jit(main)/add" source_file="/workspace/maxtext/MaxText/train.py" source_line=447 scheduling_name="get-tuple-element.4173"}
  %bitcast.32177 = f32[1]{0} bitcast(%get-tuple-element.4173), metadata={scheduling_name="bitcast.32177"}
  %get-tuple-element.4168 = f32[] get-tuple-element(%input_convert_reduce_fusion.4), index=0, metadata={op_name="jit(train_step)/jit(main)/reduce_sum" source_file="/workspace/maxtext/MaxText/max_utils.py" source_line=73 scheduling_name="get-tuple-element.4168"}
  %bitcast.32161 = f32[1]{0} bitcast(%get-tuple-element.4168), metadata={scheduling_name="bitcast.32161"}
  %bitcast.32173 = f32[1]{0} bitcast(%input_reduce_fusion.110), metadata={scheduling_name="bitcast.32173"}
  %bitcast.32157 = f32[1]{0} bitcast(%input_reduce_fusion.80), metadata={scheduling_name="bitcast.32157"}
  %bitcast.32178 = f32[1]{0} bitcast(%input_reduce_fusion.106), metadata={scheduling_name="bitcast.32178"}
  %bitcast.32162 = f32[1]{0} bitcast(%input_reduce_fusion.77), metadata={scheduling_name="bitcast.32162"}
  %bitcast.32170 = f32[1]{0} bitcast(%input_reduce_fusion.113), metadata={scheduling_name="bitcast.32170"}
  %bitcast.32154 = f32[1]{0} bitcast(%input_reduce_fusion.117), metadata={scheduling_name="bitcast.32154"}
  %bitcast.32181 = f32[1]{0} bitcast(%input_reduce_fusion.103), metadata={scheduling_name="bitcast.32181"}
  %bitcast.32165 = f32[1]{0} bitcast(%input_reduce_fusion.73), metadata={scheduling_name="bitcast.32165"}
  %bitcast.32180 = f32[1]{0} bitcast(%input_reduce_fusion.104), metadata={scheduling_name="bitcast.32180"}
  %bitcast.32164 = f32[1]{0} bitcast(%input_reduce_fusion.79), metadata={scheduling_name="bitcast.32164"}
  %bitcast.32172 = f32[1]{0} bitcast(%input_reduce_fusion.111), metadata={scheduling_name="bitcast.32172"}
  %bitcast.32156 = f32[1]{0} bitcast(%input_reduce_fusion.115), metadata={scheduling_name="bitcast.32156"}
  %bitcast.32179 = f32[1]{0} bitcast(%input_reduce_fusion.105), metadata={scheduling_name="bitcast.32179"}
  %bitcast.32163 = f32[1]{0} bitcast(%input_reduce_fusion.78), metadata={scheduling_name="bitcast.32163"}
  %bitcast.32171 = f32[1]{0} bitcast(%input_reduce_fusion.112), metadata={scheduling_name="bitcast.32171"}
  %bitcast.32155 = f32[1]{0} bitcast(%input_reduce_fusion.82), metadata={scheduling_name="bitcast.32155"}
  %bitcast.32168 = f32[1]{0} bitcast(%input_reduce_fusion.121), metadata={scheduling_name="bitcast.32168"}
  %bitcast.32184 = f32[1]{0} bitcast(%input_reduce_fusion.100), metadata={scheduling_name="bitcast.32184"}
  %bitcast.32167 = f32[1]{0} bitcast(%input_reduce_fusion.72), metadata={scheduling_name="bitcast.32167"}
  %bitcast.32183 = f32[1]{0} bitcast(%input_reduce_fusion.101), metadata={scheduling_name="bitcast.32183"}
  %bitcast.32160 = f32[1]{0} bitcast(%input_reduce_fusion.76), metadata={scheduling_name="bitcast.32160"}
  %bitcast.32176 = f32[1]{0} bitcast(%input_reduce_fusion.107), metadata={scheduling_name="bitcast.32176"}
  %bitcast.32166 = f32[1]{0} bitcast(%input_reduce_fusion.71), metadata={scheduling_name="bitcast.32166"}
  %bitcast.32182 = f32[1]{0} bitcast(%input_reduce_fusion.102), metadata={scheduling_name="bitcast.32182"}
  %bitcast.32158 = f32[1]{0} bitcast(%input_reduce_fusion.75), metadata={scheduling_name="bitcast.32158"}
  %bitcast.32174 = f32[1]{0} bitcast(%input_reduce_fusion.109), metadata={scheduling_name="bitcast.32174"}
  %bitcast.32159 = f32[1]{0} bitcast(%input_reduce_fusion.74), metadata={scheduling_name="bitcast.32159"}
  %bitcast.32175 = f32[1]{0} bitcast(%input_reduce_fusion.108), metadata={scheduling_name="bitcast.32175"}
  %wrapped_concatenate.5 = f32[33]{0} fusion(%bitcast.32154, %bitcast.32155, %bitcast.32156, %bitcast.32157, %bitcast.32158, /*index=5*/%bitcast.32159, %bitcast.32160, %bitcast.32161, %bitcast.32162, %bitcast.32163, /*index=10*/%bitcast.32164, %bitcast.32165, %bitcast.32166, %bitcast.32167, %bitcast.32168, /*index=15*/%bitcast.32169, %bitcast.32170, %bitcast.32171, %bitcast.32172, %bitcast.32173, /*index=20*/%bitcast.32174, %bitcast.32175, %bitcast.32176, %bitcast.32177, %bitcast.32178, /*index=25*/%bitcast.32179, %bitcast.32180, %bitcast.32181, %bitcast.32182, %bitcast.32183, /*index=30*/%bitcast.32184, %bitcast.32185, %bitcast.32186), kind=kLoop, calls=%wrapped_concatenate_computation.5, metadata={scheduling_name="wrapped_concatenate.5"}
  %wrapped_slice.51 = f32[1]{0} fusion(%all-reduce-done.4), kind=kLoop, calls=%wrapped_slice_computation.51, metadata={scheduling_name="wrapped_slice.51"}
  %wrapped_slice.30 = f32[1]{0} fusion(%all-reduce-done.4), kind=kLoop, calls=%wrapped_slice_computation.30, metadata={scheduling_name="wrapped_slice.30"}
  %all-reduce-done.10 = f32[8]{0} all-reduce-done(%all-reduce-start.10), metadata={scheduling_name="all-reduce-done.10"}
  %all-reduce-start.8 = f32[4]{0} all-reduce-start(%wrapped_concatenate.4), channel_id=475, replica_groups=[2,8]<=[16], use_global_device_ids=true, to_apply=%region_189.5599.clone, metadata={scheduling_name="all-reduce-start.8"}, backend_config={"operation_queue_id":"0","wait_on_operation_queues":[],"collective_backend_config":{"is_sync":false,"is_pipelined":false,"reification_cost":[]},"force_earliest_schedule":false}
  %wrapped_slice.90 = f32[1]{0} fusion(%all-reduce-done.10), kind=kLoop, calls=%wrapped_slice_computation.90, metadata={scheduling_name="wrapped_slice.90"}
  %wrapped_slice.89 = f32[1]{0} fusion(%all-reduce-done.10), kind=kLoop, calls=%wrapped_slice_computation.89, metadata={scheduling_name="wrapped_slice.89"}
  %wrapped_slice.80 = f32[1]{0} fusion(%all-reduce-done.10), kind=kLoop, calls=%wrapped_slice_computation.80, metadata={scheduling_name="wrapped_slice.80"}
  %wrapped_slice.79 = f32[1]{0} fusion(%all-reduce-done.10), kind=kLoop, calls=%wrapped_slice_computation.79, metadata={scheduling_name="wrapped_slice.79"}
  %wrapped_slice.68 = f32[1]{0} fusion(%all-reduce-done.10), kind=kLoop, calls=%wrapped_slice_computation.68, metadata={scheduling_name="wrapped_slice.68"}
  %wrapped_slice.67 = f32[1]{0} fusion(%all-reduce-done.10), kind=kLoop, calls=%wrapped_slice_computation.67, metadata={scheduling_name="wrapped_slice.67"}
  %wrapped_slice.58 = f32[1]{0} fusion(%all-reduce-done.10), kind=kLoop, calls=%wrapped_slice_computation.58, metadata={scheduling_name="wrapped_slice.58"}
  %all-reduce-done.8 = f32[4]{0} all-reduce-done(%all-reduce-start.8), metadata={scheduling_name="all-reduce-done.8"}
  %all-reduce-start.9 = f32[33]{0} all-reduce-start(%wrapped_concatenate.5), channel_id=561, replica_groups={{0,1,2,3,4,5,6,7,8,9,10,11,12,13,14,15}}, use_global_device_ids=true, to_apply=%region_188.5590.clone, metadata={scheduling_name="all-reduce-start.9"}, backend_config={"operation_queue_id":"0","wait_on_operation_queues":[],"collective_backend_config":{"is_sync":false,"is_pipelined":false,"reification_cost":[]},"force_earliest_schedule":false}
  %wrapped_slice.57 = f32[1]{0} fusion(%all-reduce-done.10), kind=kLoop, calls=%wrapped_slice_computation.57, metadata={scheduling_name="wrapped_slice.57"}
  %wrapped_slice.95 = f32[1]{0} fusion(%all-reduce-done.8), kind=kLoop, calls=%wrapped_slice_computation.95, metadata={scheduling_name="wrapped_slice.95"}
  %wrapped_slice.74 = f32[1]{0} fusion(%all-reduce-done.8), kind=kLoop, calls=%wrapped_slice_computation.74, metadata={scheduling_name="wrapped_slice.74"}
  %wrapped_slice.73 = f32[1]{0} fusion(%all-reduce-done.8), kind=kLoop, calls=%wrapped_slice_computation.73, metadata={scheduling_name="wrapped_slice.73"}
  %wrapped_slice.52 = f32[1]{0} fusion(%all-reduce-done.8), kind=kLoop, calls=%wrapped_slice_computation.52, metadata={scheduling_name="wrapped_slice.52"}
  %all-reduce-done.9 = f32[33]{0} all-reduce-done(%all-reduce-start.9), metadata={scheduling_name="all-reduce-done.9"}
  %wrapped_slice.94 = f32[1]{0} fusion(%all-reduce-done.9), kind=kLoop, calls=%wrapped_slice_computation.94, metadata={scheduling_name="wrapped_slice.94"}
  %wrapped_slice.93 = f32[1]{0} fusion(%all-reduce-done.9), kind=kLoop, calls=%wrapped_slice_computation.93, metadata={scheduling_name="wrapped_slice.93"}
  %wrapped_slice.92 = f32[1]{0} fusion(%all-reduce-done.9), kind=kLoop, calls=%wrapped_slice_computation.92, metadata={scheduling_name="wrapped_slice.92"}
  %wrapped_slice.91 = f32[1]{0} fusion(%all-reduce-done.9), kind=kLoop, calls=%wrapped_slice_computation.91, metadata={scheduling_name="wrapped_slice.91"}
  %wrapped_slice.88 = f32[1]{0} fusion(%all-reduce-done.9), kind=kLoop, calls=%wrapped_slice_computation.88, metadata={scheduling_name="wrapped_slice.88"}
  %wrapped_slice.87 = f32[1]{0} fusion(%all-reduce-done.9), kind=kLoop, calls=%wrapped_slice_computation.87, metadata={scheduling_name="wrapped_slice.87"}
  %wrapped_slice.86 = f32[1]{0} fusion(%all-reduce-done.9), kind=kLoop, calls=%wrapped_slice_computation.86, metadata={scheduling_name="wrapped_slice.86"}
  %wrapped_slice.85 = f32[1]{0} fusion(%all-reduce-done.9), kind=kLoop, calls=%wrapped_slice_computation.85, metadata={scheduling_name="wrapped_slice.85"}
  %wrapped_slice.84 = f32[1]{0} fusion(%all-reduce-done.9), kind=kLoop, calls=%wrapped_slice_computation.84, metadata={scheduling_name="wrapped_slice.84"}
  %wrapped_slice.83 = f32[1]{0} fusion(%all-reduce-done.9), kind=kLoop, calls=%wrapped_slice_computation.83, metadata={scheduling_name="wrapped_slice.83"}
  %wrapped_slice.82 = f32[1]{0} fusion(%all-reduce-done.9), kind=kLoop, calls=%wrapped_slice_computation.82, metadata={scheduling_name="wrapped_slice.82"}
  %wrapped_slice.81 = f32[1]{0} fusion(%all-reduce-done.9), kind=kLoop, calls=%wrapped_slice_computation.81, metadata={scheduling_name="wrapped_slice.81"}
  %wrapped_slice.78 = f32[1]{0} fusion(%all-reduce-done.9), kind=kLoop, calls=%wrapped_slice_computation.78, metadata={scheduling_name="wrapped_slice.78"}
  %wrapped_slice.77 = f32[1]{0} fusion(%all-reduce-done.9), kind=kLoop, calls=%wrapped_slice_computation.77, metadata={scheduling_name="wrapped_slice.77"}
  %wrapped_slice.76 = f32[1]{0} fusion(%all-reduce-done.9), kind=kLoop, calls=%wrapped_slice_computation.76, metadata={scheduling_name="wrapped_slice.76"}
  %wrapped_slice.75 = f32[1]{0} fusion(%all-reduce-done.9), kind=kLoop, calls=%wrapped_slice_computation.75, metadata={scheduling_name="wrapped_slice.75"}
  %wrapped_slice.72 = f32[1]{0} fusion(%all-reduce-done.9), kind=kLoop, calls=%wrapped_slice_computation.72, metadata={scheduling_name="wrapped_slice.72"}
  %wrapped_slice.71 = f32[1]{0} fusion(%all-reduce-done.9), kind=kLoop, calls=%wrapped_slice_computation.71, metadata={scheduling_name="wrapped_slice.71"}
  %wrapped_slice.70 = f32[1]{0} fusion(%all-reduce-done.9), kind=kLoop, calls=%wrapped_slice_computation.70, metadata={scheduling_name="wrapped_slice.70"}
  %wrapped_slice.69 = f32[1]{0} fusion(%all-reduce-done.9), kind=kLoop, calls=%wrapped_slice_computation.69, metadata={scheduling_name="wrapped_slice.69"}
  %wrapped_slice.66 = f32[1]{0} fusion(%all-reduce-done.9), kind=kLoop, calls=%wrapped_slice_computation.66, metadata={scheduling_name="wrapped_slice.66"}
  %wrapped_slice.65 = f32[1]{0} fusion(%all-reduce-done.9), kind=kLoop, calls=%wrapped_slice_computation.65, metadata={scheduling_name="wrapped_slice.65"}
  %wrapped_slice.64 = f32[1]{0} fusion(%all-reduce-done.9), kind=kLoop, calls=%wrapped_slice_computation.64, metadata={scheduling_name="wrapped_slice.64"}
  %wrapped_slice.63 = f32[1]{0} fusion(%all-reduce-done.9), kind=kLoop, calls=%wrapped_slice_computation.63, metadata={scheduling_name="wrapped_slice.63"}
  %wrapped_slice.62 = f32[1]{0} fusion(%all-reduce-done.9), kind=kLoop, calls=%wrapped_slice_computation.62, metadata={scheduling_name="wrapped_slice.62"}
  %wrapped_slice.61 = f32[1]{0} fusion(%all-reduce-done.9), kind=kLoop, calls=%wrapped_slice_computation.61, metadata={scheduling_name="wrapped_slice.61"}
  %wrapped_slice.60 = f32[1]{0} fusion(%all-reduce-done.9), kind=kLoop, calls=%wrapped_slice_computation.60, metadata={scheduling_name="wrapped_slice.60"}
  %wrapped_slice.59 = f32[1]{0} fusion(%all-reduce-done.9), kind=kLoop, calls=%wrapped_slice_computation.59, metadata={scheduling_name="wrapped_slice.59"}
  %wrapped_slice.56 = f32[1]{0} fusion(%all-reduce-done.9), kind=kLoop, calls=%wrapped_slice_computation.56, metadata={scheduling_name="wrapped_slice.56"}
  %wrapped_slice.55 = f32[1]{0} fusion(%all-reduce-done.9), kind=kLoop, calls=%wrapped_slice_computation.55, metadata={scheduling_name="wrapped_slice.55"}
  %wrapped_slice.54 = f32[1]{0} fusion(%all-reduce-done.9), kind=kLoop, calls=%wrapped_slice_computation.54, metadata={scheduling_name="wrapped_slice.54"}
  %wrapped_slice.53 = f32[1]{0} fusion(%all-reduce-done.9), kind=kLoop, calls=%wrapped_slice_computation.53, metadata={scheduling_name="wrapped_slice.53"}
  %wrapped_slice.96 = f32[1]{0} fusion(%all-reduce-done.9), kind=kLoop, calls=%wrapped_slice_computation.96, metadata={scheduling_name="wrapped_slice.96"}
  %bitcast.32145 = f32[] bitcast(%wrapped_slice.46), metadata={op_name="jit(train_step)/jit(main)/reduce_sum" source_file="/workspace/maxtext/MaxText/max_utils.py" source_line=73 scheduling_name="bitcast.32145"}
  %bitcast.32144 = f32[] bitcast(%wrapped_slice.45), metadata={op_name="jit(train_step)/jit(main)/reduce_sum" source_file="/workspace/maxtext/MaxText/max_utils.py" source_line=73 scheduling_name="bitcast.32144"}
  %bitcast.32143 = f32[] bitcast(%wrapped_slice.36), metadata={op_name="jit(train_step)/jit(main)/reduce_sum" source_file="/workspace/maxtext/MaxText/max_utils.py" source_line=73 scheduling_name="bitcast.32143"}
  %bitcast.32142 = f32[] bitcast(%wrapped_slice.35), metadata={op_name="jit(train_step)/jit(main)/reduce_sum" source_file="/workspace/maxtext/MaxText/max_utils.py" source_line=73 scheduling_name="bitcast.32142"}
  %bitcast.32121 = f32[] bitcast(%wrapped_slice.50), metadata={scheduling_name="bitcast.32121"}
  %bitcast.32120 = f32[] bitcast(%wrapped_slice.49), metadata={scheduling_name="bitcast.32120"}
  %bitcast.32119 = f32[] bitcast(%wrapped_slice.48), metadata={scheduling_name="bitcast.32119"}
  %bitcast.32118 = f32[] bitcast(%wrapped_slice.47), metadata={scheduling_name="bitcast.32118"}
  %bitcast.32117 = f32[] bitcast(%wrapped_slice.44), metadata={scheduling_name="bitcast.32117"}
  %bitcast.32116 = f32[] bitcast(%wrapped_slice.43), metadata={scheduling_name="bitcast.32116"}
  %bitcast.32115 = f32[] bitcast(%wrapped_slice.42), metadata={scheduling_name="bitcast.32115"}
  %bitcast.32114 = f32[] bitcast(%wrapped_slice.41), metadata={scheduling_name="bitcast.32114"}
  %bitcast.32113 = f32[] bitcast(%wrapped_slice.40), metadata={scheduling_name="bitcast.32113"}
  %bitcast.32112 = f32[] bitcast(%wrapped_slice.39), metadata={scheduling_name="bitcast.32112"}
  %bitcast.32111 = f32[] bitcast(%wrapped_slice.38), metadata={scheduling_name="bitcast.32111"}
  %bitcast.32110 = f32[] bitcast(%wrapped_slice.37), metadata={scheduling_name="bitcast.32110"}
  %bitcast.32109 = f32[] bitcast(%wrapped_slice.34), metadata={scheduling_name="bitcast.32109"}
  %bitcast.32108 = f32[] bitcast(%wrapped_slice.33), metadata={scheduling_name="bitcast.32108"}
  %bitcast.32107 = f32[] bitcast(%wrapped_slice.32), metadata={scheduling_name="bitcast.32107"}
  %bitcast.32106 = f32[] bitcast(%wrapped_slice.31), metadata={scheduling_name="bitcast.32106"}
  %bitcast.32057 = f32[] bitcast(%wrapped_slice.51), metadata={op_name="jit(train_step)/jit(main)/reduce_sum" source_file="/workspace/maxtext/MaxText/max_utils.py" source_line=73 scheduling_name="bitcast.32057"}
  %bitcast.32056 = f32[] bitcast(%wrapped_slice.30), metadata={op_name="jit(train_step)/jit(main)/reduce_sum" source_file="/workspace/maxtext/MaxText/max_utils.py" source_line=73 scheduling_name="bitcast.32056"}
  %get-tuple-element.4245 = f32[] get-tuple-element(%input_add_convert_reduce_fusion.7), index=3, metadata={scheduling_name="get-tuple-element.4245"}
  %get-tuple-element.4225 = f32[] get-tuple-element(%input_convert_reduce_fusion.21), index=0, metadata={op_name="jit(train_step)/jit(main)/reduce_sum" source_file="/workspace/maxtext/MaxText/max_utils.py" source_line=73 scheduling_name="get-tuple-element.4225"}
  %bitcast.32235 = f32[] bitcast(%wrapped_slice.90), metadata={op_name="jit(train_step)/jit(main)/reduce_sum" source_file="/workspace/maxtext/MaxText/max_utils.py" source_line=73 scheduling_name="bitcast.32235"}
  %bitcast.32234 = f32[] bitcast(%wrapped_slice.89), metadata={op_name="jit(train_step)/jit(main)/reduce_sum" source_file="/workspace/maxtext/MaxText/max_utils.py" source_line=73 scheduling_name="bitcast.32234"}
  %bitcast.32233 = f32[] bitcast(%wrapped_slice.80), metadata={op_name="jit(train_step)/jit(main)/reduce_sum" source_file="/workspace/maxtext/MaxText/max_utils.py" source_line=73 scheduling_name="bitcast.32233"}
  %bitcast.32232 = f32[] bitcast(%wrapped_slice.79), metadata={op_name="jit(train_step)/jit(main)/reduce_sum" source_file="/workspace/maxtext/MaxText/max_utils.py" source_line=73 scheduling_name="bitcast.32232"}
  %bitcast.32231 = f32[] bitcast(%wrapped_slice.68), metadata={op_name="jit(train_step)/jit(main)/reduce_sum" source_file="/workspace/maxtext/MaxText/max_utils.py" source_line=73 scheduling_name="bitcast.32231"}
  %bitcast.32230 = f32[] bitcast(%wrapped_slice.67), metadata={op_name="jit(train_step)/jit(main)/reduce_sum" source_file="/workspace/maxtext/MaxText/max_utils.py" source_line=73 scheduling_name="bitcast.32230"}
  %bitcast.32229 = f32[] bitcast(%wrapped_slice.58), metadata={op_name="jit(train_step)/jit(main)/reduce_sum" source_file="/workspace/maxtext/MaxText/max_utils.py" source_line=73 scheduling_name="bitcast.32229"}
  %bitcast.32228 = f32[] bitcast(%wrapped_slice.57), metadata={op_name="jit(train_step)/jit(main)/reduce_sum" source_file="/workspace/maxtext/MaxText/max_utils.py" source_line=73 scheduling_name="bitcast.32228"}
  %bitcast.32153 = f32[] bitcast(%wrapped_slice.95), metadata={op_name="jit(train_step)/jit(main)/reduce_sum" source_file="/workspace/maxtext/MaxText/max_utils.py" source_line=73 scheduling_name="bitcast.32153"}
  %bitcast.32152 = f32[] bitcast(%wrapped_slice.74), metadata={op_name="jit(train_step)/jit(main)/reduce_sum" source_file="/workspace/maxtext/MaxText/max_utils.py" source_line=73 scheduling_name="bitcast.32152"}
  %bitcast.32151 = f32[] bitcast(%wrapped_slice.73), metadata={op_name="jit(train_step)/jit(main)/reduce_sum" source_file="/workspace/maxtext/MaxText/max_utils.py" source_line=73 scheduling_name="bitcast.32151"}
  %bitcast.32150 = f32[] bitcast(%wrapped_slice.52), metadata={op_name="jit(train_step)/jit(main)/reduce_sum" source_file="/workspace/maxtext/MaxText/max_utils.py" source_line=73 scheduling_name="bitcast.32150"}
  %bitcast.32218 = f32[] bitcast(%wrapped_slice.94), metadata={scheduling_name="bitcast.32218"}
  %bitcast.32217 = f32[] bitcast(%wrapped_slice.93), metadata={scheduling_name="bitcast.32217"}
  %bitcast.32216 = f32[] bitcast(%wrapped_slice.92), metadata={scheduling_name="bitcast.32216"}
  %bitcast.32215 = f32[] bitcast(%wrapped_slice.91), metadata={scheduling_name="bitcast.32215"}
  %bitcast.32214 = f32[] bitcast(%wrapped_slice.88), metadata={scheduling_name="bitcast.32214"}
  %bitcast.32213 = f32[] bitcast(%wrapped_slice.87), metadata={scheduling_name="bitcast.32213"}
  %bitcast.32212 = f32[] bitcast(%wrapped_slice.86), metadata={scheduling_name="bitcast.32212"}
  %bitcast.32211 = f32[] bitcast(%wrapped_slice.85), metadata={scheduling_name="bitcast.32211"}
  %bitcast.32210 = f32[] bitcast(%wrapped_slice.84), metadata={scheduling_name="bitcast.32210"}
  %bitcast.32209 = f32[] bitcast(%wrapped_slice.83), metadata={scheduling_name="bitcast.32209"}
  %bitcast.32208 = f32[] bitcast(%wrapped_slice.82), metadata={scheduling_name="bitcast.32208"}
  %bitcast.32207 = f32[] bitcast(%wrapped_slice.81), metadata={scheduling_name="bitcast.32207"}
  %bitcast.32206 = f32[] bitcast(%wrapped_slice.78), metadata={scheduling_name="bitcast.32206"}
  %bitcast.32205 = f32[] bitcast(%wrapped_slice.77), metadata={scheduling_name="bitcast.32205"}
  %bitcast.32204 = f32[] bitcast(%wrapped_slice.76), metadata={scheduling_name="bitcast.32204"}
  %bitcast.32203 = f32[] bitcast(%wrapped_slice.75), metadata={scheduling_name="bitcast.32203"}
  %bitcast.32202 = f32[] bitcast(%wrapped_slice.72), metadata={scheduling_name="bitcast.32202"}
  %bitcast.32201 = f32[] bitcast(%wrapped_slice.71), metadata={scheduling_name="bitcast.32201"}
  %bitcast.32200 = f32[] bitcast(%wrapped_slice.70), metadata={scheduling_name="bitcast.32200"}
  %bitcast.32199 = f32[] bitcast(%wrapped_slice.69), metadata={scheduling_name="bitcast.32199"}
  %bitcast.32198 = f32[] bitcast(%wrapped_slice.66), metadata={scheduling_name="bitcast.32198"}
  %bitcast.32197 = f32[] bitcast(%wrapped_slice.65), metadata={scheduling_name="bitcast.32197"}
  %bitcast.32196 = f32[] bitcast(%wrapped_slice.64), metadata={scheduling_name="bitcast.32196"}
  %bitcast.32195 = f32[] bitcast(%wrapped_slice.63), metadata={scheduling_name="bitcast.32195"}
  %bitcast.32194 = f32[] bitcast(%wrapped_slice.62), metadata={scheduling_name="bitcast.32194"}
  %bitcast.32193 = f32[] bitcast(%wrapped_slice.61), metadata={scheduling_name="bitcast.32193"}
  %bitcast.32192 = f32[] bitcast(%wrapped_slice.60), metadata={scheduling_name="bitcast.32192"}
  %bitcast.32191 = f32[] bitcast(%wrapped_slice.59), metadata={scheduling_name="bitcast.32191"}
  %bitcast.32190 = f32[] bitcast(%wrapped_slice.56), metadata={scheduling_name="bitcast.32190"}
  %bitcast.32189 = f32[] bitcast(%wrapped_slice.55), metadata={scheduling_name="bitcast.32189"}
  %bitcast.32188 = f32[] bitcast(%wrapped_slice.54), metadata={scheduling_name="bitcast.32188"}
  %bitcast.32187 = f32[] bitcast(%wrapped_slice.53), metadata={scheduling_name="bitcast.32187"}
  %loop_convert_fusion.20 = (bf16[], bf16[], bf16[]) fusion(%bitcast.32056, %bitcast.32106, %bitcast.32107, %bitcast.32108, %bitcast.32109, /*index=5*/%bitcast.32142, %bitcast.32143, %bitcast.32110, %bitcast.32111, %bitcast.32112, /*index=10*/%bitcast.32113, %bitcast.32114, %bitcast.32115, %bitcast.32116, %bitcast.32117, /*index=15*/%bitcast.32144, %bitcast.32145, %bitcast.32118, %bitcast.32119, %bitcast.32120, /*index=20*/%bitcast.32121, %input_reduce_fusion.68, %bitcast.32057, %bitcast.32150, %bitcast.32187, /*index=25*/%bitcast.32188, %bitcast.32189, %bitcast.32190, %bitcast.32228, %bitcast.32229, /*index=30*/%bitcast.32191, %bitcast.32192, %bitcast.32193, %bitcast.32194, %bitcast.32195, /*index=35*/%bitcast.32196, %bitcast.32197, %bitcast.32198, %bitcast.32230, %bitcast.32231, /*index=40*/%bitcast.32199, %bitcast.32200, %bitcast.32201, %bitcast.32202, %get-tuple-element.4225, /*index=45*/%bitcast.32151, %bitcast.32152, %bitcast.32203, %bitcast.32204, %bitcast.32205, /*index=50*/%bitcast.32206, %bitcast.32232, %bitcast.32233, %bitcast.32207, %bitcast.32208, /*index=55*/%bitcast.32209, %bitcast.32210, %bitcast.32211, %bitcast.32212, %bitcast.32213, /*index=60*/%bitcast.32214, %bitcast.32234, %bitcast.32235, %bitcast.32215, %bitcast.32216, /*index=65*/%bitcast.32217, %bitcast.32218, %get-tuple-element.4245, %bitcast.32153), kind=kLoop, calls=%fused_convert.20, metadata={scheduling_name="loop_convert_fusion.20"}
  %bitcast.32219 = f32[] bitcast(%wrapped_slice.96), metadata={op_name="jit(train_step)/jit(main)/reduce_sum" source_file="/workspace/maxtext/MaxText/train.py" source_line=306 scheduling_name="bitcast.32219"}
  %copy_fusion = (f32[], f32[], f32[]) fusion(%constant_2882_0, %bitcast.32219, %all-reduce-done), kind=kLoop, calls=%copy_horizontally_fused_computation, metadata={scheduling_name="copy_fusion"}
  %input_transpose_fusion.11 = bf16[32768,768]{1,0} fusion(%input_transpose_fusion.10), kind=kInput, calls=%fused_transpose.25, metadata={scheduling_name="input_transpose_fusion.11"}
  %get-tuple-element.4845 = s32[] get-tuple-element(%loop_add_select_fusion), index=1, metadata={op_name="jit(train_step)/jit(main)/jit(_where)/select_n" source_file="/workspace/maxtext/MaxText/train.py" source_line=447 scheduling_name="get-tuple-element.4845"}
  %get-tuple-element.4774 = s32[] get-tuple-element(%loop_add_select_fusion), index=0, metadata={op_name="jit(train_step)/jit(main)/add" source_file="/workspace/maxtext/MaxText/train.py" source_line=447 scheduling_name="get-tuple-element.4774"}
  %get-tuple-element.4822 = bf16[6144]{0} get-tuple-element(%input_add_convert_reduce_fusion.7), index=1, metadata={scheduling_name="get-tuple-element.4822"}
  %get-tuple-element.4799 = bf16[6144]{0} get-tuple-element(%input_add_convert_reduce_fusion.7), index=0, metadata={scheduling_name="get-tuple-element.4799"}
  %get-tuple-element.4775 = bf16[6144]{0} get-tuple-element(%input_convert_reduce_fusion.21), index=1, metadata={op_name="jit(train_step)/jit(main)/reduce_sum" source_file="/workspace/maxtext/MaxText/max_utils.py" source_line=73 scheduling_name="get-tuple-element.4775"}
  %get-tuple-element.4801 = bf16[2,1,768,8]{3,2,1,0} get-tuple-element(%input_add_convert_reduce_fusion.6), index=2, metadata={op_name="jit(train_step)/jit(main)/add" source_file="/workspace/maxtext/MaxText/train.py" source_line=447 scheduling_name="get-tuple-element.4801"}
  %get-tuple-element.4824 = bf16[2,1,768,8]{3,2,1,0} get-tuple-element(%input_add_convert_reduce_fusion.6), index=1, metadata={op_name="jit(train_step)/jit(main)/add" source_file="/workspace/maxtext/MaxText/train.py" source_line=447 scheduling_name="get-tuple-element.4824"}
  %get-tuple-element.4777 = bf16[2,1,768,8]{3,2,1,0} get-tuple-element(%input_convert_reduce_fusion.7), index=1, metadata={op_name="jit(train_step)/jit(main)/reduce_sum" source_file="/workspace/maxtext/MaxText/max_utils.py" source_line=73 scheduling_name="get-tuple-element.4777"}
  %get-tuple-element.4815 = bf16[2,1,6144]{2,1,0} get-tuple-element(%input_add_convert_reduce_fusion.2), index=2, metadata={op_name="jit(train_step)/jit(main)/add" source_file="/workspace/maxtext/MaxText/train.py" source_line=447 scheduling_name="get-tuple-element.4815"}
  %get-tuple-element.4838 = bf16[2,1,6144]{2,1,0} get-tuple-element(%input_add_convert_reduce_fusion.2), index=1, metadata={op_name="jit(train_step)/jit(main)/add" source_file="/workspace/maxtext/MaxText/train.py" source_line=447 scheduling_name="get-tuple-element.4838"}
  %get-tuple-element.4791 = bf16[2,1,6144]{2,1,0} get-tuple-element(%input_convert_reduce_fusion.3), index=1, metadata={op_name="jit(train_step)/jit(main)/reduce_sum" source_file="/workspace/maxtext/MaxText/max_utils.py" source_line=73 scheduling_name="get-tuple-element.4791"}
  %get-tuple-element.4816 = bf16[2,1,6144]{2,1,0} get-tuple-element(%input_add_convert_reduce_fusion.1), index=2, metadata={op_name="jit(train_step)/jit(main)/add" source_file="/workspace/maxtext/MaxText/train.py" source_line=447 scheduling_name="get-tuple-element.4816"}
  %get-tuple-element.4839 = bf16[2,1,6144]{2,1,0} get-tuple-element(%input_add_convert_reduce_fusion.1), index=1, metadata={op_name="jit(train_step)/jit(main)/add" source_file="/workspace/maxtext/MaxText/train.py" source_line=447 scheduling_name="get-tuple-element.4839"}
  %get-tuple-element.4792 = bf16[2,1,6144]{2,1,0} get-tuple-element(%input_convert_reduce_fusion.2), index=1, metadata={op_name="jit(train_step)/jit(main)/reduce_sum" source_file="/workspace/maxtext/MaxText/max_utils.py" source_line=73 scheduling_name="get-tuple-element.4792"}
  %get-tuple-element.4811 = bf16[2,1,768,8]{3,2,1,0} get-tuple-element(%input_add_convert_reduce_fusion.3), index=2, metadata={op_name="jit(train_step)/jit(main)/add" source_file="/workspace/maxtext/MaxText/train.py" source_line=447 scheduling_name="get-tuple-element.4811"}
  %get-tuple-element.4834 = bf16[2,1,768,8]{3,2,1,0} get-tuple-element(%input_add_convert_reduce_fusion.3), index=1, metadata={op_name="jit(train_step)/jit(main)/add" source_file="/workspace/maxtext/MaxText/train.py" source_line=447 scheduling_name="get-tuple-element.4834"}
  %get-tuple-element.4787 = bf16[2,1,768,8]{3,2,1,0} get-tuple-element(%input_convert_reduce_fusion.4), index=1, metadata={op_name="jit(train_step)/jit(main)/reduce_sum" source_file="/workspace/maxtext/MaxText/max_utils.py" source_line=73 scheduling_name="get-tuple-element.4787"}
  %get-tuple-element.4805 = bf16[2,1,6144]{2,1,0} get-tuple-element(%input_add_convert_reduce_fusion.5), index=2, metadata={op_name="jit(train_step)/jit(main)/add" source_file="/workspace/maxtext/MaxText/train.py" source_line=447 scheduling_name="get-tuple-element.4805"}
  %get-tuple-element.4828 = bf16[2,1,6144]{2,1,0} get-tuple-element(%input_add_convert_reduce_fusion.5), index=1, metadata={op_name="jit(train_step)/jit(main)/add" source_file="/workspace/maxtext/MaxText/train.py" source_line=447 scheduling_name="get-tuple-element.4828"}
  %get-tuple-element.4781 = bf16[2,1,6144]{2,1,0} get-tuple-element(%input_convert_reduce_fusion.6), index=1, metadata={op_name="jit(train_step)/jit(main)/reduce_sum" source_file="/workspace/maxtext/MaxText/max_utils.py" source_line=73 scheduling_name="get-tuple-element.4781"}
  %get-tuple-element.4806 = bf16[2,1,6144]{2,1,0} get-tuple-element(%input_add_convert_reduce_fusion.4), index=2, metadata={op_name="jit(train_step)/jit(main)/add" source_file="/workspace/maxtext/MaxText/train.py" source_line=447 scheduling_name="get-tuple-element.4806"}
  %get-tuple-element.4829 = bf16[2,1,6144]{2,1,0} get-tuple-element(%input_add_convert_reduce_fusion.4), index=1, metadata={op_name="jit(train_step)/jit(main)/add" source_file="/workspace/maxtext/MaxText/train.py" source_line=447 scheduling_name="get-tuple-element.4829"}
  %get-tuple-element.4782 = bf16[2,1,6144]{2,1,0} get-tuple-element(%input_convert_reduce_fusion.5), index=1, metadata={op_name="jit(train_step)/jit(main)/reduce_sum" source_file="/workspace/maxtext/MaxText/max_utils.py" source_line=73 scheduling_name="get-tuple-element.4782"}
  %get-tuple-element.4840 = bf16[2,1,768,8,128]{4,3,2,1,0} get-tuple-element(%input_convert_reduce_fusion.24), index=3, metadata={scheduling_name="get-tuple-element.4840"}
  %get-tuple-element.4817 = bf16[2,1,768,8,128]{4,3,2,1,0} get-tuple-element(%input_convert_reduce_fusion.24), index=1, metadata={scheduling_name="get-tuple-element.4817"}
  %get-tuple-element.4793 = bf16[2,1,768,8,128]{4,3,2,1,0} get-tuple-element(%input_convert_reduce_fusion.24), index=0, metadata={scheduling_name="get-tuple-element.4793"}
  %get-tuple-element.4833 = bf16[2,1,768,8,128]{4,3,2,1,0} get-tuple-element(%input_convert_reduce_fusion.23), index=3, metadata={scheduling_name="get-tuple-element.4833"}
  %get-tuple-element.4810 = bf16[2,1,768,8,128]{4,3,2,1,0} get-tuple-element(%input_convert_reduce_fusion.23), index=1, metadata={scheduling_name="get-tuple-element.4810"}
  %get-tuple-element.4786 = bf16[2,1,768,8,128]{4,3,2,1,0} get-tuple-element(%input_convert_reduce_fusion.23), index=0, metadata={scheduling_name="get-tuple-element.4786"}
  %get-tuple-element.4843 = bf16[2,1,768,8,128]{4,3,2,1,0} get-tuple-element(%input_convert_reduce_fusion.25), index=3, metadata={scheduling_name="get-tuple-element.4843"}
  %get-tuple-element.4820 = bf16[2,1,768,8,128]{4,3,2,1,0} get-tuple-element(%input_convert_reduce_fusion.25), index=1, metadata={scheduling_name="get-tuple-element.4820"}
  %get-tuple-element.4796 = bf16[2,1,768,8,128]{4,3,2,1,0} get-tuple-element(%input_convert_reduce_fusion.25), index=0, metadata={scheduling_name="get-tuple-element.4796"}
  %get-tuple-element.4830 = bf16[2,1,768,8,128]{4,3,2,1,0} get-tuple-element(%input_convert_reduce_fusion.22), index=3, metadata={scheduling_name="get-tuple-element.4830"}
  %get-tuple-element.4807 = bf16[2,1,768,8,128]{4,3,2,1,0} get-tuple-element(%input_convert_reduce_fusion.22), index=1, metadata={scheduling_name="get-tuple-element.4807"}
  %get-tuple-element.4783 = bf16[2,1,768,8,128]{4,3,2,1,0} get-tuple-element(%input_convert_reduce_fusion.22), index=0, metadata={scheduling_name="get-tuple-element.4783"}
  %get-tuple-element.4831 = bf16[2,1,48,128,768]{4,3,2,1,0} get-tuple-element(%input_convert_reduce_fusion.17), index=3, metadata={scheduling_name="get-tuple-element.4831"}
  %get-tuple-element.4808 = bf16[2,1,48,128,768]{4,3,2,1,0} get-tuple-element(%input_convert_reduce_fusion.17), index=1, metadata={scheduling_name="get-tuple-element.4808"}
  %get-tuple-element.4784 = bf16[2,1,48,128,768]{4,3,2,1,0} get-tuple-element(%input_convert_reduce_fusion.17), index=0, metadata={scheduling_name="get-tuple-element.4784"}
  %get-tuple-element.4841 = bf16[2,1,48,128,768]{4,3,2,1,0} get-tuple-element(%input_convert_reduce_fusion.18), index=3, metadata={scheduling_name="get-tuple-element.4841"}
  %get-tuple-element.4818 = bf16[2,1,48,128,768]{4,3,2,1,0} get-tuple-element(%input_convert_reduce_fusion.18), index=1, metadata={scheduling_name="get-tuple-element.4818"}
  %get-tuple-element.4794 = bf16[2,1,48,128,768]{4,3,2,1,0} get-tuple-element(%input_convert_reduce_fusion.18), index=0, metadata={scheduling_name="get-tuple-element.4794"}
  %get-tuple-element.4832 = bf16[2,1,768,48,128]{4,3,2,1,0} get-tuple-element(%input_convert_reduce_fusion.19), index=3, metadata={scheduling_name="get-tuple-element.4832"}
  %get-tuple-element.4809 = bf16[2,1,768,48,128]{4,3,2,1,0} get-tuple-element(%input_convert_reduce_fusion.19), index=1, metadata={scheduling_name="get-tuple-element.4809"}
  %get-tuple-element.4785 = bf16[2,1,768,48,128]{4,3,2,1,0} get-tuple-element(%input_convert_reduce_fusion.19), index=0, metadata={scheduling_name="get-tuple-element.4785"}
  %get-tuple-element.4842 = bf16[2,1,768,48,128]{4,3,2,1,0} get-tuple-element(%input_convert_reduce_fusion.20), index=3, metadata={scheduling_name="get-tuple-element.4842"}
  %get-tuple-element.4819 = bf16[2,1,768,48,128]{4,3,2,1,0} get-tuple-element(%input_convert_reduce_fusion.20), index=1, metadata={scheduling_name="get-tuple-element.4819"}
  %get-tuple-element.4795 = bf16[2,1,768,48,128]{4,3,2,1,0} get-tuple-element(%input_convert_reduce_fusion.20), index=0, metadata={scheduling_name="get-tuple-element.4795"}
  %get-tuple-element.4821 = bf16[32768,768]{1,0} get-tuple-element(%input_select_transpose_fusion), index=1, metadata={scheduling_name="get-tuple-element.4821"}
  %get-tuple-element.4844 = bf16[32768,768]{1,0} get-tuple-element(%input_select_transpose_fusion), index=0, metadata={scheduling_name="get-tuple-element.4844"}
  %get-tuple-element.4823 = bf16[768,32768]{1,0} get-tuple-element(%input_convert_reduce_fusion.16), index=3, metadata={scheduling_name="get-tuple-element.4823"}
  %get-tuple-element.4800 = bf16[768,32768]{1,0} get-tuple-element(%input_convert_reduce_fusion.16), index=1, metadata={scheduling_name="get-tuple-element.4800"}
  %get-tuple-element.4776 = bf16[768,32768]{1,0} get-tuple-element(%input_convert_reduce_fusion.16), index=0, metadata={scheduling_name="get-tuple-element.4776"}
  %get-tuple-element.4825 = bf16[2,1,1,6144,16384]{4,3,2,1,0} get-tuple-element(%input_convert_reduce_fusion.10), index=3, metadata={scheduling_name="get-tuple-element.4825"}
  %get-tuple-element.4802 = bf16[2,1,1,6144,16384]{4,3,2,1,0} get-tuple-element(%input_convert_reduce_fusion.10), index=1, metadata={scheduling_name="get-tuple-element.4802"}
  %get-tuple-element.4778 = bf16[2,1,1,6144,16384]{4,3,2,1,0} get-tuple-element(%input_convert_reduce_fusion.10), index=0, metadata={scheduling_name="get-tuple-element.4778"}
  %get-tuple-element.4826 = bf16[2,1,1,6144,16384]{4,3,2,1,0} get-tuple-element(%input_convert_reduce_fusion.11), index=3, metadata={scheduling_name="get-tuple-element.4826"}
  %get-tuple-element.4803 = bf16[2,1,1,6144,16384]{4,3,2,1,0} get-tuple-element(%input_convert_reduce_fusion.11), index=1, metadata={scheduling_name="get-tuple-element.4803"}
  %get-tuple-element.4779 = bf16[2,1,1,6144,16384]{4,3,2,1,0} get-tuple-element(%input_convert_reduce_fusion.11), index=0, metadata={scheduling_name="get-tuple-element.4779"}
  %get-tuple-element.4835 = bf16[2,1,1,6144,16384]{4,3,2,1,0} get-tuple-element(%input_convert_reduce_fusion.13), index=3, metadata={scheduling_name="get-tuple-element.4835"}
  %get-tuple-element.4812 = bf16[2,1,1,6144,16384]{4,3,2,1,0} get-tuple-element(%input_convert_reduce_fusion.13), index=1, metadata={scheduling_name="get-tuple-element.4812"}
  %get-tuple-element.4788 = bf16[2,1,1,6144,16384]{4,3,2,1,0} get-tuple-element(%input_convert_reduce_fusion.13), index=0, metadata={scheduling_name="get-tuple-element.4788"}
  %get-tuple-element.4827 = bf16[2,1,1,16384,6144]{4,3,2,1,0} get-tuple-element(%input_convert_reduce_fusion.12), index=3, metadata={scheduling_name="get-tuple-element.4827"}
  %get-tuple-element.4804 = bf16[2,1,1,16384,6144]{4,3,2,1,0} get-tuple-element(%input_convert_reduce_fusion.12), index=1, metadata={scheduling_name="get-tuple-element.4804"}
  %get-tuple-element.4780 = bf16[2,1,1,16384,6144]{4,3,2,1,0} get-tuple-element(%input_convert_reduce_fusion.12), index=0, metadata={scheduling_name="get-tuple-element.4780"}
  %get-tuple-element.4837 = bf16[2,1,1,16384,6144]{4,3,2,1,0} get-tuple-element(%input_convert_reduce_fusion.15), index=3, metadata={scheduling_name="get-tuple-element.4837"}
  %get-tuple-element.4814 = bf16[2,1,1,16384,6144]{4,3,2,1,0} get-tuple-element(%input_convert_reduce_fusion.15), index=1, metadata={scheduling_name="get-tuple-element.4814"}
  %get-tuple-element.4790 = bf16[2,1,1,16384,6144]{4,3,2,1,0} get-tuple-element(%input_convert_reduce_fusion.15), index=0, metadata={scheduling_name="get-tuple-element.4790"}
  %get-tuple-element.4836 = bf16[2,1,1,6144,16384]{4,3,2,1,0} get-tuple-element(%input_convert_reduce_fusion.14), index=3, metadata={scheduling_name="get-tuple-element.4836"}
  %get-tuple-element.4813 = bf16[2,1,1,6144,16384]{4,3,2,1,0} get-tuple-element(%input_convert_reduce_fusion.14), index=1, metadata={scheduling_name="get-tuple-element.4813"}
  %get-tuple-element.4789 = bf16[2,1,1,6144,16384]{4,3,2,1,0} get-tuple-element(%input_convert_reduce_fusion.14), index=0, metadata={scheduling_name="get-tuple-element.4789"}
  %get-tuple-element.4846 = bf16[] get-tuple-element(%loop_convert_fusion.20), index=2, metadata={scheduling_name="get-tuple-element.4846"}
  %get-tuple-element.4850 = bf16[] get-tuple-element(%loop_convert_fusion.20), index=1, metadata={scheduling_name="get-tuple-element.4850"}
  %get-tuple-element.4851 = bf16[] get-tuple-element(%loop_convert_fusion.20), index=0, metadata={scheduling_name="get-tuple-element.4851"}
  %get-tuple-element.4881 = f32[] get-tuple-element(%copy_fusion), index=2, metadata={scheduling_name="get-tuple-element.4881"}
  %bitcast.32260 = f32[] bitcast(%get-tuple-element.4881), metadata={op_name="jit(train_step)/jit(main)/div" source_file="/workspace/maxtext/MaxText/train.py" source_line=320 scheduling_name="bitcast.32260"}
  %get-tuple-element.4880 = f32[] get-tuple-element(%copy_fusion), index=1, metadata={scheduling_name="get-tuple-element.4880"}
  %bitcast.32259 = f32[] bitcast(%get-tuple-element.4880), metadata={scheduling_name="bitcast.32259"}
  %get-tuple-element.4879 = f32[] get-tuple-element(%copy_fusion), index=0, metadata={scheduling_name="get-tuple-element.4879"}
  %bitcast.32258 = f32[] bitcast(%get-tuple-element.4879), metadata={scheduling_name="bitcast.32258"}
  ROOT %tuple.669 = (s32[], bf16[6144]{0}, bf16[768,32768]{1,0}, bf16[2,1,768,8]{3,2,1,0}, bf16[2,1,1,6144,16384]{4,3,2,1,0}, /*index=5*/bf16[2,1,1,6144,16384]{4,3,2,1,0}, bf16[2,1,1,16384,6144]{4,3,2,1,0}, bf16[2,1,6144]{2,1,0}, bf16[2,1,6144]{2,1,0}, bf16[2,1,768,8,128]{4,3,2,1,0}, /*index=10*/bf16[2,1,48,128,768]{4,3,2,1,0}, bf16[2,1,768,48,128]{4,3,2,1,0}, bf16[2,1,768,8,128]{4,3,2,1,0}, bf16[2,1,768,8]{3,2,1,0}, bf16[2,1,1,6144,16384]{4,3,2,1,0}, /*index=15*/bf16[2,1,1,6144,16384]{4,3,2,1,0}, bf16[2,1,1,16384,6144]{4,3,2,1,0}, bf16[2,1,6144]{2,1,0}, bf16[2,1,6144]{2,1,0}, bf16[2,1,768,8,128]{4,3,2,1,0}, /*index=20*/bf16[2,1,48,128,768]{4,3,2,1,0}, bf16[2,1,768,48,128]{4,3,2,1,0}, bf16[2,1,768,8,128]{4,3,2,1,0}, bf16[32768,768]{1,0}, s32[], /*index=25*/bf16[6144]{0}, bf16[768,32768]{1,0}, bf16[2,1,768,8]{3,2,1,0}, bf16[2,1,1,6144,16384]{4,3,2,1,0}, bf16[2,1,1,6144,16384]{4,3,2,1,0}, /*index=30*/bf16[2,1,1,16384,6144]{4,3,2,1,0}, bf16[2,1,6144]{2,1,0}, bf16[2,1,6144]{2,1,0}, bf16[2,1,768,8,128]{4,3,2,1,0}, bf16[2,1,48,128,768]{4,3,2,1,0}, /*index=35*/bf16[2,1,768,48,128]{4,3,2,1,0}, bf16[2,1,768,8,128]{4,3,2,1,0}, bf16[2,1,768,8]{3,2,1,0}, bf16[2,1,1,6144,16384]{4,3,2,1,0}, bf16[2,1,1,6144,16384]{4,3,2,1,0}, /*index=40*/bf16[2,1,1,16384,6144]{4,3,2,1,0}, bf16[2,1,6144]{2,1,0}, bf16[2,1,6144]{2,1,0}, bf16[2,1,768,8,128]{4,3,2,1,0}, bf16[2,1,48,128,768]{4,3,2,1,0}, /*index=45*/bf16[2,1,768,48,128]{4,3,2,1,0}, bf16[2,1,768,8,128]{4,3,2,1,0}, bf16[32768,768]{1,0}, bf16[6144]{0}, bf16[768,32768]{1,0}, /*index=50*/bf16[2,1,768,8]{3,2,1,0}, bf16[2,1,1,6144,16384]{4,3,2,1,0}, bf16[2,1,1,6144,16384]{4,3,2,1,0}, bf16[2,1,1,16384,6144]{4,3,2,1,0}, bf16[2,1,6144]{2,1,0}, /*index=55*/bf16[2,1,6144]{2,1,0}, bf16[2,1,768,8,128]{4,3,2,1,0}, bf16[2,1,48,128,768]{4,3,2,1,0}, bf16[2,1,768,48,128]{4,3,2,1,0}, bf16[2,1,768,8,128]{4,3,2,1,0}, /*index=60*/bf16[2,1,768,8]{3,2,1,0}, bf16[2,1,1,6144,16384]{4,3,2,1,0}, bf16[2,1,1,6144,16384]{4,3,2,1,0}, bf16[2,1,1,16384,6144]{4,3,2,1,0}, bf16[2,1,6144]{2,1,0}, /*index=65*/bf16[2,1,6144]{2,1,0}, bf16[2,1,768,8,128]{4,3,2,1,0}, bf16[2,1,48,128,768]{4,3,2,1,0}, bf16[2,1,768,48,128]{4,3,2,1,0}, bf16[2,1,768,8,128]{4,3,2,1,0}, /*index=70*/bf16[32768,768]{1,0}, s32[], bf16[], f32[], f32[], /*index=75*/f32[], bf16[], bf16[], s32[]) tuple(%get-tuple-element.4774, %get-tuple-element.4775, %get-tuple-element.4776, %get-tuple-element.4777, %get-tuple-element.4778, /*index=5*/%get-tuple-element.4779, %get-tuple-element.4780, %get-tuple-element.4781, %get-tuple-element.4782, %get-tuple-element.4783, /*index=10*/%get-tuple-element.4784, %get-tuple-element.4785, %get-tuple-element.4786, %get-tuple-element.4787, %get-tuple-element.4788, /*index=15*/%get-tuple-element.4789, %get-tuple-element.4790, %get-tuple-element.4791, %get-tuple-element.4792, %get-tuple-element.4793, /*index=20*/%get-tuple-element.4794, %get-tuple-element.4795, %get-tuple-element.4796, %input_transpose_fusion.11, %get-tuple-element.4798, /*index=25*/%get-tuple-element.4799, %get-tuple-element.4800, %get-tuple-element.4801, %get-tuple-element.4802, %get-tuple-element.4803, /*index=30*/%get-tuple-element.4804, %get-tuple-element.4805, %get-tuple-element.4806, %get-tuple-element.4807, %get-tuple-element.4808, /*index=35*/%get-tuple-element.4809, %get-tuple-element.4810, %get-tuple-element.4811, %get-tuple-element.4812, %get-tuple-element.4813, /*index=40*/%get-tuple-element.4814, %get-tuple-element.4815, %get-tuple-element.4816, %get-tuple-element.4817, %get-tuple-element.4818, /*index=45*/%get-tuple-element.4819, %get-tuple-element.4820, %get-tuple-element.4821, %get-tuple-element.4822, %get-tuple-element.4823, /*index=50*/%get-tuple-element.4824, %get-tuple-element.4825, %get-tuple-element.4826, %get-tuple-element.4827, %get-tuple-element.4828, /*index=55*/%get-tuple-element.4829, %get-tuple-element.4830, %get-tuple-element.4831, %get-tuple-element.4832, %get-tuple-element.4833, /*index=60*/%get-tuple-element.4834, %get-tuple-element.4835, %get-tuple-element.4836, %get-tuple-element.4837, %get-tuple-element.4838, /*index=65*/%get-tuple-element.4839, %get-tuple-element.4840, %get-tuple-element.4841, %get-tuple-element.4842, %get-tuple-element.4843, /*index=70*/%get-tuple-element.4844, %get-tuple-element.4845, %get-tuple-element.4846, %bitcast.32260, %bitcast.32258, /*index=75*/%bitcast.32259, %get-tuple-element.4850, %get-tuple-element.4851, %all-reduce-done), metadata={scheduling_name="tuple.669"}
}
